CNN.pt (torch_old, 422182 bytes, 10 tensors)

weight f4 [16, 1, 3, 3]
000000 3c 40 2b 3e bd 91 82 be d9 83 23 be 4f 38 fe 3e
       0.16723722 -0.25501814 -0.15968265 0.49652335
000010 f4 09 05 3f 9f 1f e6 3e f6 a7 15 3c 13 3c 7e 3e
       0.5196831 0.44946 0.009134283 0.24827604
000020 02 87 10 3e c1 18 3f 3d 57 e5 c3 be 24 00 80 3e
       0.14114001 0.046654467 -0.3826091 0.25000107
000030 04 a8 ac be d0 32 1a 3e 28 ef 2b bd 4c 6b ac be
       -0.33721936 0.15058446 -0.041976124 -0.3367561
000040 10 2f ac 3e c9 e8 c8 3e 74 5d 13 be 4f 23 7a bd
       0.33629656 0.392401 -0.14391118 -0.06106883
000050 65 49 1d be 31 90 b0 be 3c fb bf be 87 45 d6 bc
       -0.15360029 -0.3448501 -0.37496364 -0.0261562
000060 44 81 92 be 8f ed e0 bd 98 75 4d be e3 e8 95 be
       -0.28614247 -0.10982811 -0.2006439 -0.2927924
000070 04 5a ca be cd 8c cd be 99 7d ad be e4 94 bb bd
       -0.395218 -0.40146485 -0.33884886 -0.09159258
000080 d0 8e 06 be 80 f2 e9 3d 33 50 45 3d e2 21 59 3e
       -0.13140416 0.11423206 0.048172187 0.21204332
000090 81 8a 11 be 35 7a b8 3e c5 6d cb 3e a2 dd 85 be
       -0.14212991 0.36030737 0.39732185 -0.26145655
0000a0 34 f6 a7 3e 0a 2f 0e 3f 4d 1f 25 3e 7e 6e bb 3d
       0.32805026 0.55540526 0.16125222 0.09151934
0000b0 c3 17 f2 3d 28 ce 22 3e 27 0d eb bd 4f f4 4f 3d
       0.118209384 0.15898955 -0.11477118 0.0507701
0000c0 84 48 fd be bf c0 ce be bb ed b2 be 65 93 f7 bc
       -0.49469388 -0.4038143 -0.34947 -0.03022165
0000d0 0d 65 9c bd d9 10 a6 be 26 2b 80 be 00 36 91 be
       -0.076364614 -0.3243473 -0.2503292 -0.2836151
0000e0 c4 23 a8 be cb 1f b6 be e8 a4 c3 bd d2 77 fa be
       -0.32839787 -0.3557113 -0.09552938 -0.4891954
0000f0 6c 8f a0 3d d6 9d 0e be c8 eb 73 bd ec 27 e8 3c
       0.078398556 -0.13927397 -0.05955103 0.028339349
000100 73 30 a0 be 74 a2 6d 3d b3 4b d1 be 77 e0 c1 be
       -0.31286964 0.058016255 -0.40878066 -0.37866566
000110 89 0c 47 3e d3 6f 37 3e d2 bd bb 3e 82 49 f4 3e
       0.19438376 0.17913751 0.3666826 0.47712332
000120 1e 46 de 3e 76 df c8 3e 5e 2f ae bd 05 c4 23 3d
       0.4341287 0.39232987 -0.08505128 0.03998186
000130 e0 c6 f6 3e c3 db a0 3e ef b5 eb 3e 62 76 86 3e
       0.48198605 0.31417665 0.46037242 0.26262194
000140 a9 69 b1 bd 40 49 c4 be 4f 04 26 be 2c 26 7e be
       -0.08662731 -0.38337135 -0.16212581 -0.24819249
000150 60 c0 f9 be 4e db b6 bd fa 04 15 bf 48 10 a5 be
       -0.48779583 -0.08928548 -0.5821072 -0.32238984
000160 7c 50 bd be 76 f2 da be 37 d3 c2 bd 11 42 d5 be
       -0.36975467 -0.42763108 -0.09512942 -0.41651967
000170 db 0d 1f be 96 f2 1a 3e 70 24 54 be a6 97 8f be
       -0.15532629 0.15131602 -0.20717025 -0.28045386
000180 f8 1e ce 3d 49 39 d2 be 8c 16 a2 be 61 fe b7 be
       0.100645006 -0.4105933 -0.31657827 -0.35936263
000190 cf 07 0c 3f 5b 93 b7 3e 43 91 bb 3d 99 27 e5 3e
       0.54699415 0.3585461 0.09158566 0.44756773
0001a0 dd ed 38 be 17 85 6f 3e 9d b1 c0 3e 58 74 88 3e
       -0.18059488 0.23390613 0.37635508 0.26651263
0001b0 3a c4 6d 3d cc 96 b7 bd f1 a9 03 3f b0 05 95 3e
       0.058048464 -0.08964309 0.51431185 0.29105902
0001c0 17 a4 c1 3e d5 97 1b be 94 3b e1 be 66 72 ee be
       0.37820503 -0.15194638 -0.43990767 -0.46571654
0001d0 5a f8 25 be 54 3c 74 bd 47 cb 4f 3c c2 1e 10 3d
       -0.1620802 -0.059627846 0.012682742 0.035185583
0001e0 4e 44 11 3e b9 f8 cf be 39 6c a9 3d 5e f9 f9 be
       0.14186212 -0.40619448 0.08272595 -0.48823065
0001f0 e9 fc cc be d2 4c 5b be 43 c4 eb be 13 e1 34 3e
       -0.40036705 -0.21416023 -0.46048173 0.17663984
000200 73 2e b6 be 32 66 1d 3e 9c 7d 5b 3e 1e 31 b4 3e
       -0.35582313 0.15371016 0.21434635 0.35193723
000210 73 bb 56 3e 83 44 d7 3d 1e d3 a9 3e 03 72 3f 3e
       0.20969944 0.105111144 0.33168882 0.18695836
000220 9a eb fe bd 48 3e 01 3e 4a 9b 6f be 0b c3 03 3f
       -0.12447281 0.12621415 -0.23399082 0.51469487
000230 8f d0 d2 3e b2 86 13 3e 05 16 06 3f ce 88 99 be
       0.41174743 0.14406851 0.5237735 -0.29987186

bias f4 [16]
000000 37 8a 0b 3f 36 a1 c1 3e 84 52 ce 3a 47 09 ea 3d
       0.54507774 0.37818307 0.0015741144 0.11427551
000010 80 33 c2 3e 24 ad a3 3e 0f 2a 18 3d 76 fa 54 3e
       0.37929916 0.31968033 0.037149485 0.20798668
000020 55 1d 79 3b 63 53 41 be b8 74 2a be d6 79 5d 3e
       0.0038011868 -0.18879466 -0.16646087 0.21628508
000030 41 e1 43 bd b1 87 06 3e d3 45 df 3e 17 8a a0 3e
       -0.04782224 0.131377 0.4360796 0.31355354

weight f4 [32, 16, 3, 3]
000000 f1 fe 67 bc 00 22 8f bc c6 a9 58 bb 1e dd e8 3c
       -0.014159904 -0.017472267 -0.0033060177 0.02842575
000010 3d da eb bd 37 39 83 3d 96 75 46 bc 93 dc b9 bb
       -0.11516235 0.06407397 -0.012112996 -0.0056720464
000020 b1 12 95 3d 09 e6 a5 ba 4a 27 88 bd 26 60 03 3e
       0.07278956 -0.0012657057 -0.06648119 0.12829646
000030 8e 0a 52 bd 4d 15 fc 3d ff 47 12 3e 23 d0 28 bd
       -0.051279597 0.1230875 0.14285277 -0.04121412
000040 f2 5f 6d 3e 0f e9 63 bc 23 10 3b 3d b7 2e 00 3d
       0.23181131 -0.013910546 0.045669686 0.03129455
000050 9e 1e 9c bd 2e 54 96 3c a3 a9 03 3e f6 45 86 bc
       -0.07623027 0.018350687 0.1285768 -0.016390782
000060 14 62 00 3d 7a 8b 46 3d a8 64 67 bd 63 5b 5c bd
       0.031343535 0.04847286 -0.056492478 -0.05379809
000070 d5 42 3e bd e2 8c 5a 3d 22 0c 9d 3d b5 1f 9c 3d
       -0.046450455 0.053357013 0.0766833 0.07623235
000080 6b 41 66 bb 12 fa 09 3e b6 fb 84 3d 75 77 87 bd
       -0.0035134207 0.134743 0.064933226 -0.066145815
000090 49 3a b5 bc da 38 87 bc af 85 ec 3d a0 35 84 bd
       -0.02212252 -0.016506601 0.115489356 -0.06455541
0000a0 5c 41 f6 bc 87 3a 01 3d 7e a4 cb bc 62 57 21 3e
       -0.030060463 0.031549957 -0.02485871 0.1575599
0000b0 32 ad 11 3d cd 80 0b 3d 30 db c6 3d 9b 82 82 bc
       0.035565563 0.03405838 0.097097754 -0.015931418
0000c0 8e 00 c9 3d 80 f5 81 3c 75 7b a7 bd 92 16 ac bc
       0.09814559 0.015864134 -0.081778444 -0.021006856
0000d0 04 88 42 bd 74 4b 13 bd 26 47 47 bd 59 58 1a 3d
       -0.047492996 -0.03596063 -0.048651837 0.03768191
0000e0 db d1 f6 bd 95 14 f2 3d f2 0d 9a 3c 0a 19 f7 bd
       -0.120517455 0.11820332 0.018805478 -0.12065323
0000f0 3d 24 e2 3d 1d d0 b0 bc 74 cc 49 bd db 18 5a bd
       0.11042068 -0.021583611 -0.049267247 -0.05324636
000100 cd bf 54 3d da ec 0b 3e 5b f2 c2 3c 2d f0 c5 3d
       0.051940728 0.1366457 0.023797205 0.096649505
000110 2f a1 1b 3e 7c 7c bd 3c b6 75 c2 3d 70 28 49 bc
       0.15198205 0.023130648 0.09495108 -0.012277707
000120 71 a6 16 bd 36 9f 22 bd 7b fe 27 3e 0b dd 7b 3d
       -0.036779825 -0.039702617 0.1640567 0.0614901
000130 4d 25 f8 bd 86 19 5b 3d 6c d0 1f bd aa c7 a0 bc
       -0.121164896 0.053491138 -0.039017126 -0.019626457
000140 87 7c 0e 3e 54 2c 02 3a b1 f3 b2 b9 68 f3 91 bd
       0.13914691 0.0004965712 -0.0003413237 -0.07126504
000150 e5 43 da 3d 2d f6 fa 3d a5 d7 ae bd 0e 4b 53 3d
       0.10657481 0.122539856 -0.08537225 0.05158525
000160 f6 b2 35 bd 93 5b f4 bd 11 67 da bc a7 79 2b bc
       -0.044360124 -0.11931529 -0.026660474 -0.010466016
000170 34 d8 1b be eb 35 3a 3d 7b 3a 58 3b 25 d5 19 3c
       -0.15219194 0.045461576 0.0032993841 0.0093891965
000180 22 61 79 bb dc a8 a3 3d 84 68 e8 bd 3e b7 93 bd
       -0.003805228 0.07991192 -0.1134806 -0.07212685
000190 02 06 fa bd 58 83 8e 3d 75 a9 bb bd 25 cb ab bc
       -0.12208177 0.069586456 -0.09163181 -0.02097089
0001a0 0b 6b 05 3e a5 23 a9 bd b5 74 1d 3d b3 5d b9 3d
       0.13029115 -0.08258752 0.03844138 0.09051075
0001b0 0d a4 34 3d 3a 27 92 3d d2 e4 76 3d ed a8 b9 3d
       0.044101764 0.07136388 0.060276814 0.09065423
0001c0 88 3f bd bb 9c 57 c6 bd 0e 23 09 be c5 43 15 be
       -0.005775396 -0.09684679 -0.13392279 -0.14576633
0001d0 88 89 37 be 32 5f af 3d b3 9c 39 3b 53 b4 1f 3d
       -0.17923558 0.08563079 0.002832216 0.03899033
0001e0 8f 5e 34 bc 06 95 99 3d 1a 97 d9 bd 85 ce ee bc
       -0.011008873 0.07499127 -0.106245235 -0.02915121
0001f0 84 49 cc bb b6 42 a8 bc 21 e9 58 bd 30 76 89 3a
       -0.0062343497 -0.020539623 -0.052956704 0.0010487493
000200 bf b0 ba 3d 4f 61 ae bd ae 27 b2 bb ec dc 10 3d
       0.09115743 -0.08514654 -0.005436859 0.035366938
000210 67 22 79 3d 58 ad 9b 3d d1 d0 eb 3d b3 84 1d bd
       0.060823824 0.07601422 0.11514438 -0.03845663
000220 e5 59 89 bd 6c aa a1 3c a5 e9 58 bd 84 7a 4e 3d
       -0.06706599 0.019734584 -0.052957196 0.05040981
000230 71 61 8a 3d 6b 0a cb 3c aa ac 07 3e 9f d8 cb 3c
       0.06756867 0.024785241 0.1324946 0.024883566
000240 58 c6 a2 3d 8c 38 8f 3d d2 de c1 3d 04 f6 13 3e
       0.07947987 0.06993207 0.09466328 0.14449316
000250 ac 93 d2 3d 4d cd 16 3e 31 b4 37 bd 0c b7 89 ba
       0.102820724 0.14726754 -0.04484958 -0.0010506823
000260 62 b2 87 bd 73 5d ff 3d 5d f1 cd 3d 9e b3 fc 3d
       -0.06625821 0.12468996 0.10055802 0.12338947
000270 0a 5e be 3d d0 d8 07 3d d0 97 bf bd 93 bb 2f 3e
       0.0929528 0.033165753 -0.09355128 0.17161398
000280 ed b0 c4 3c 97 2e 31 bd 81 69 da 3c 29 54 02 bd
       0.024010146 -0.043257322 0.026661636 -0.031818543
000290 52 ed 5e 3d d9 1d 1e be 54 5c e7 bd db 7b b4 bc
       0.054425545 -0.15441073 -0.11296907 -0.022031715
0002a0 65 47 bd 3d ec 9b 38 3c 4e c4 fe 3d aa cb dc 3d
       0.09242133 0.011267643 0.12439786 0.10781033
0002b0 52 66 1f 3e 51 6f a9 3d 3f 55 b2 bc a9 26 af bd
       0.15566376 0.08273185 -0.021769164 -0.08552296
0002c0 b9 48 e1 bc fe c6 d8 bd 23 d0 ad 3c 07 9a 61 bb
       -0.027500497 -0.1058483 0.021217411 -0.0034424083
0002d0 3f 0a 8a 3c 67 99 17 bd 0d 33 43 3c db 62 16 3d
       0.016850589 -0.03701153 0.011914027 0.03671537
0002e0 0e 55 36 3e bc e8 01 3d c1 73 ab ba 79 26 ac 39
       0.17805883 0.031716093 -0.0013080762 0.0003283506
0002f0 ac 79 b1 bd bc cf 6c 3d 16 39 65 3d a4 ad 5c 3c
       -0.08665785 0.0578153 0.055962645 0.0134691335
000300 28 ca 0c be a5 e3 eb bd 8c b2 d1 3d 33 25 71 bc
       -0.13748991 -0.11518029 0.10239133 -0.014718342
000310 6b f1 e4 3d 43 b9 b6 3d fd bd 61 3d 88 ed 5b bd
       0.11178859 0.089220546 0.055112828 -0.053693324
000320 96 1c 52 3d 1b 60 1a be fe 34 ec bd dd 71 c1 bd
       0.051296793 -0.15075724 -0.11533545 -0.09445546
000330 b0 8c c8 bd 72 4d 0c 3d 5d cf 11 3e 80 1c 1a 3e
       -0.09792459 0.034253545 0.14239259 0.15049934
000340 17 ab 11 3e 8c 55 10 3e 97 8f 46 3e 8d 94 a8 3d
       0.14225422 0.14095134 0.19390713 0.08231459
000350 13 96 69 bd bd 07 a5 3d 60 36 71 be f5 12 b9 bc
       -0.057027888 0.080581166 -0.23555899 -0.022592047
000360 9a 36 99 bc 10 67 ab bd b8 3e 81 bb 19 79 ce 3d
       -0.018702794 -0.08369267 -0.0039442442 0.10081691
000370 dc 8d 35 3e ce 21 a0 3d 34 23 75 3d 2a fd 11 3e
       0.17729896 0.07818948 0.059848025 0.1425673
000380 94 2f f0 3b 9b 35 1a bd 06 f8 7f 3d 16 8d 21 bd
       0.0073298905 -0.03764878 0.062492393 -0.03944119
000390 49 35 20 be e1 fe 0e bd 6d 3f 76 3d fc bd 46 bd
       -0.15645327 -0.03491104 0.06011908 -0.048521027
0003a0 96 e2 07 3d 91 32 65 3d 38 8a 13 bd ff ad 45 bc
       0.033175074 0.055956427 -0.036020488 -0.01206541
0003b0 62 52 57 bd 5b 41 6f bd 12 a7 8a bc c5 44 57 3d
       -0.0525688 -0.058411937 -0.016925368 0.052555818
0003c0 32 ed e2 3c 40 f0 9f 3d c0 d5 00 3d bd 4a d9 3c
       0.027700994 0.07809496 0.031453848 0.026524896
0003d0 63 93 ad 3d 8a c4 b9 3d 13 6c 0b 3e ad ac 28 3e
       0.084753774 0.0907069 0.13615446 0.1647212
0003e0 28 cf 99 3c f4 58 c5 3d 89 8d 22 3c ea 0d fa bd
       0.018775538 0.09636107 0.00992144 -0.12209685
0003f0 7d e5 4d bb 54 86 42 bd 0b e6 1e 3e a7 17 89 3d
       -0.0031417303 -0.047491387 0.15517442 0.066939645

bias f4 [32]
000000 74 6e 80 3d 43 23 64 3d 39 80 ce bd 7c 87 07 3d
       0.06271067 0.05569769 -0.1008305 0.033088192
000010 b4 7a 47 bd c0 9c 8a 3d f9 43 c6 3b ac 62 9e 3d
       -0.048701003 0.06768179 0.0060505834 0.07733664
000020 68 4c 4e bd 94 19 b4 bc 82 33 0c 3e 07 37 01 3e
       -0.050365835 -0.021984853 0.13691524 0.12618648
000030 dd 96 73 bc a5 61 0e 3d 43 d8 a0 3b c8 33 aa bd
       -0.014867512 0.03476109 0.004908593 -0.08310658
000040 c2 c1 39 bd d5 c9 6c bd 6c fb 6f bb 48 b9 50 bc
       -0.045350797 -0.05780967 -0.0036618365 -0.012739487
000050 29 bb 76 3d 90 0b f7 bd 9c f5 9b 3d 91 1f 87 bd
       0.060237084 -0.12062752 0.07615206 -0.06597818
000060 17 b6 86 bd 6b 38 94 3d 5c ee 06 3d 02 5b 4c bc
       -0.065777 0.072373234 0.03294216 -0.01247287
000070 0a 71 d9 bc 79 49 66 bd 9c 77 70 3d e7 2f 84 bc
       -0.026543159 -0.056222413 0.05870782 -0.016136123

weight f4 [64, 32, 3, 3]
000000 4a 88 07 3d 44 d5 3d bd be bf c9 bd 2d fe d9 bc
       0.03308896 -0.046345964 -0.09851025 -0.026610458
000010 ce 04 60 3d 3b 11 d6 bc c8 44 c1 bb ca 23 6c bd
       0.054692082 -0.026131263 -0.005898092 -0.05765132
000020 63 f6 0b 3e fc fe 84 3d 41 47 d8 3d 29 f2 43 3b
       0.13668208 0.06493947 0.105604656 0.0029898977
000030 ac f0 ac bd ea 5f dc bd c6 ce 82 bd c1 36 79 3d
       -0.08444342 -0.10760482 -0.06387095 0.060843233
000040 d5 58 3c 3c 35 87 c8 3c e8 b2 61 bd e6 4d a3 bd
       0.011495789 0.024478534 -0.05510226 -0.07973842
000050 c1 a1 13 3d a2 f8 95 3d a4 b1 59 3d 8a 5b de 3b
       0.036042932 0.073228136 0.053147927 0.0067858147
000060 bb f2 d5 3c 8e 60 c2 3c 30 26 b5 bd 9e 1b b3 3d
       0.02611672 0.023727681 -0.08845174 0.08745502
000070 1f 66 eb 3d 1b f7 5f 3d b6 d5 c9 ba 6c f8 2b 39
       0.114940874 0.054679018 -0.0015398774 0.00016400375
000080 16 b4 90 bc c8 93 1f 3d 1e da c8 bb 60 aa 51 3d
       -0.017663997 0.038959295 -0.006129517 0.051187873
000090 13 06 80 3a 8a bf 2e bd 9f 4f c3 bd c9 38 86 bc
       0.0009767435 -0.042663135 -0.09536671 -0.0163845
0000a0 05 33 3a 3d cc b1 18 bc 1b 95 83 3c 8f 39 c0 3c
       0.045458812 -0.009319734 0.01606231 0.023464946
0000b0 13 34 1f 3c b6 10 d3 3d b9 3f d8 3c 07 eb bd bd
       0.009717005 0.10305922 0.026397573 -0.092733435
0000c0 4b fd 90 bd d4 b5 34 3a ff e5 48 bd 29 d2 ad bb
       -0.07079562 0.00068935496 -0.049047466 -0.005304594
0000d0 f6 d2 19 3d ed 85 7f bc 6a 04 0d bd d9 8e 47 bd
       0.037554704 -0.015595895 -0.034428038 -0.048720215
0000e0 be 7e 60 bc 14 1d 69 3d 3c 73 2c 3d 5d df 7c bc
       -0.013702093 0.056912497 0.042102084 -0.015434113
0000f0 3f da 48 bd 9a 8a 60 bd fb f2 2f bd 44 38 1a 3d
       -0.04903626 -0.05481968 -0.042956334 0.037651315
000100 c0 c7 4b 3d 45 87 b0 3d 3c 61 df bd ce 6f ae 3b
       0.049751043 0.086195506 -0.10907218 0.0053233868
000110 f1 21 d0 3c 3a 94 87 3d b6 70 36 3d 9b d2 a7 3d
       0.02540681 0.06620069 0.044541083 0.08194467
000120 9b bd 45 bc ac 3f 1d 3d a3 78 5f 3d 3c 45 68 bd
       -0.012069131 0.0383908 0.054558408 -0.056706652
000130 71 74 f8 bc f3 6a ac 3d 56 5b 41 3d a2 ff 0e 3d
       -0.030328961 0.084188364 0.047206245 0.03491176
000140 c6 9c 33 3d 8d 47 de 3c c3 97 39 3d e4 1d 83 bc
       0.043850683 0.027133727 0.045310747 -0.016005464
000150 0d 4b b1 bd 8d 8e 01 bd 34 31 77 3d c5 c7 10 bc
       -0.08656893 -0.031630088 0.060349658 -0.008836691
000160 90 48 15 3d 1e 31 f2 bc 18 13 3b bd 92 09 1e 3c
       0.036446154 -0.029564437 -0.045672506 0.009645836
000170 34 d0 4a bc 88 b6 d2 3c 54 80 2f 3a 5a 4a c3 3c
       -0.012378741 0.025721803 0.00066948426 0.023839165
000180 00 00 1c 3c 69 82 bc 3d 13 c7 8b 3c b3 3d 4f 3d
       0.009521484 0.09204561 0.0170627 0.05059595
000190 55 b2 55 3d a6 b0 e2 3d 63 47 be bd 7c 42 f2 bd
       0.052172024 0.11068849 -0.0929096 -0.11829087
0001a0 94 e9 9e 3c b2 60 51 3d 88 1f ad 3c e8 5f a7 bb
       0.019398488 0.051117606 0.0211332 -0.0051078685
0001b0 7c 19 58 3d 22 65 81 3d d3 59 98 3d c7 97 eb 3b
       0.05275868 0.06318118 0.074390076 0.007189724
0001c0 6c f5 39 bd cb 56 6f 3d 21 51 45 bc 51 c6 6c bd
       -0.04540007 0.05843238 -0.012043268 -0.057806317
0001d0 87 57 83 3d 9d 7e 38 bd 88 fa 8c bd da 42 ac 3c
       0.06413179 -0.045042623 -0.068837225 0.021027971
0001e0 98 3b f4 bc aa e2 99 3d 76 66 aa 3c 52 7a d4 3c
       -0.029813573 0.07513936 0.02080081 0.025937233
0001f0 de 79 f5 3c ac cf 0f bd ad 59 b6 3c 2a f1 42 bd
       0.029965337 -0.03511016 0.022259558 -0.047593273
000200 d5 97 d5 bc 6e ca 8e 3d 42 90 0e 3d 06 26 27 bd
       -0.026073376 0.06972204 0.034805544 -0.040807746
000210 9f ff 0e bd 23 8e 78 bc a3 b7 2a bd 4a 98 2f bc
       -0.034911748 -0.015170607 -0.041679036 -0.010717461
000220 fa 91 24 bc 10 0b bb bd 2e 2a fe 3c 13 ce 1b 3d
       -0.010044569 -0.091329694 0.031025972 0.038038325
000230 86 a2 8c bc cf ac 35 bd 1e 02 ad bc bc e0 b8 3d
       -0.017167341 -0.044354256 -0.021119174 0.0902724
000240 a4 4e 0f 3d 3f 8a c4 bc c3 a0 9e bd 57 18 1a 3c
       0.034987107 -0.023991702 -0.077455066 0.009405217
000250 04 1e a8 bd b4 f1 ba bd e5 50 91 3c 2b 20 9e 3c
       -0.0820885 -0.091281325 0.017738769 0.019302448
000260 45 3d 14 bb 68 f5 f9 bc cd d1 b7 3b 46 6c a8 bd
       -0.0022619527 -0.030512527 0.005609727 -0.082237765
000270 86 e3 2b 3d 8d d1 dd 3c 77 86 d2 bc 79 3c 0c bd
       0.04196503 0.02707746 -0.025698883 -0.03423736
000280 e5 b0 a2 bc d9 73 9a 3c 61 93 10 bc d0 37 de 3c
       -0.01985974 0.018854069 -0.0088242 0.027126223
000290 64 8b 42 bc 2f 89 88 bc 31 08 b1 bc bb 1e 7a bd
       -0.011874054 -0.016666977 -0.021610351 -0.061064463
0002a0 34 44 6f 3d f9 2e 3e 3d bb b1 61 3b 22 25 80 3d
       0.058414653 0.046431515 0.003443821 0.062570825
0002b0 1e 57 c2 bc 1f c1 1f bd a4 d2 20 3d 2e 7c 85 bd
       -0.023723181 -0.039002534 0.039263383 -0.06517826
0002c0 15 69 b6 bc e3 bd 8b 3d 21 85 95 38 fd 8f 58 bd
       -0.022266904 0.068233274 7.129671e-05 -0.052871693
0002d0 ad 0e 3b 3d 9c 58 8a bd f8 ae ab 3c 79 c8 a7 3a
       0.045668293 -0.06755182 0.020957455 0.0012800834
0002e0 d8 c7 64 3d db 44 30 3d d0 65 3c 3d ea 50 ed 3c
       0.05585465 0.043034416 0.045995533 0.028969247
0002f0 6b e2 21 bd ef 64 68 3d 40 06 5e bc 5d 73 16 3c
       -0.03952257 0.056736883 -0.013551295 0.009182778
000300 6e 6b 65 3c 8a 89 18 3d 8a f6 4f bd 3c 7c cb bc
       0.014002664 0.037240542 -0.050772227 -0.024839513
000310 b0 83 43 3d c3 fa 8c bc 3d a7 a8 3d a9 14 df 3d
       0.04773301 -0.017209416 0.08235023 0.108926125
000320 d3 db e5 3d 0f ec bd bd 32 ad 9d bd dc 76 a6 bc
       0.11223569 -0.0927354 -0.0769905 -0.020320348
000330 70 2b 56 3d a8 09 e1 3d 3f 63 9e 3c 3d 7b da 3c
       0.05228752 0.1098817 0.019334434 0.026670093
000340 70 2e 0e bc 26 bc 62 bd 8d 62 5a bd 2f dc 49 3c
       -0.008678064 -0.055355214 -0.05331664 0.012320562
000350 8e 3d 86 3d eb ff ab 3d 17 a7 82 3d b0 96 e3 3d
       0.065547094 0.08398422 0.06379526 0.11112726
000360 f9 09 cb bc 0c 3d 5e bd 0a 2e 0a bd fd 58 40 3d
       -0.024785029 -0.054257438 -0.033735313 0.046959866
000370 61 17 06 3d 59 6d a0 bd 3b 0b 22 3d 7b 2e 80 3d
       0.03273714 -0.078333564 0.03956149 0.062588654
000380 60 9f cd bc 40 15 eb 3b 53 0a 39 3d a9 f9 b7 bd
       -0.02510041 0.007174164 0.04517586 -0.08983166
000390 60 85 3b bd 4a 6f 2c bc c1 43 2f 3d 6a b2 0e bd
       -0.045781493 -0.01052458 0.042789225 -0.034838118
0003a0 64 69 8b bd 54 86 b2 3d c1 f4 25 bd f9 a6 4d bd
       -0.06807211 0.08717027 -0.04051662 -0.050208066
0003b0 50 7b b3 3d fe da 4e 3d b3 2f 5e 3c d2 a6 43 3d
       0.08763754 0.050501816 0.013561177 0.047766514
0003c0 58 2e 8a bb 48 45 13 3c c6 bd 83 3d e4 e3 8b bd
       -0.0042169504 0.008988686 0.06432681 -0.06830576
0003d0 f3 2d 59 3c 3a 69 93 bd 23 07 c0 bc bd 72 d3 3c
       0.013255584 -0.07197805 -0.023440903 0.025811547
0003e0 88 19 5b bd b7 08 29 bd 4b 13 a8 3d 11 97 47 bd
       -0.053491145 -0.041268077 0.08206805 -0.048728053
0003f0 d6 55 ba bd 35 5a 25 bd 5b 43 7e bd 11 2f ad ba
       -0.09098403 -0.04036923 -0.062075954 -0.001321288

bias f4 [64]
000000 2e 8c 90 3c 22 97 b9 bc ed 67 0c bd 79 e3 7f bd
       0.017644968 -0.022655074 -0.0342788 -0.062472794
000010 0d a5 dc bc 56 6d 92 3c 28 35 91 bd e9 46 ff 3b
       -0.026934171 0.017874401 -0.07090217 0.0077904356
000020 1e 4b f9 bc 28 b1 99 bd 0e 76 80 3c 3c d0 30 38
       -0.030431326 -0.07504493 0.015681293 4.2155603e-05
000030 fc fe fe ba 49 2e 91 3c e0 55 08 3d 9b 0f 74 bd
       -0.0019454653 0.017722266 0.03328502 -0.059585195
000040 02 ee 58 bc a1 33 09 3d 07 42 46 bd df e2 fc bc
       -0.013240339 0.033496503 -0.048402812 -0.0308699
000050 a1 5a b8 3c 63 2c b5 bc ff ed 58 bd 0d 40 5d bd
       0.022504153 -0.022115892 -0.052961346 -0.05401616
000060 9b ac 22 3d 5b fc b5 bd 7c d3 50 bd 08 2b a3 bc
       0.03971539 -0.088860236 -0.050982937 -0.01991798
000070 0b 9b db bc 8e 07 84 3d 0c f1 5e bc 79 fe 1b bd
       -0.026807329 0.064467534 -0.013607275 -0.03808448
000080 ac 1c 09 3d c3 25 68 3c 05 3f 6c 3d 4a 59 64 bc
       0.03347461 0.014169159 0.057677288 -0.013937304
000090 17 85 d5 3c 1a 54 72 bd 28 ea 99 3c fc be 1f 3c
       0.026064439 -0.059162237 0.018788412 0.009750124
0000a0 80 bd bd bc a4 54 cb 3c 59 60 8d 3b 24 c0 98 bc
       -0.02316165 0.024820633 0.004314464 -0.018646307
0000b0 82 ec 81 bd 37 cf d5 bc 75 0c 0c bc 10 b7 be bd
       -0.063439384 -0.026099784 -0.008547892 -0.0931226
0000c0 86 ce 58 bd 4f 16 19 3c 06 88 8d bd 47 eb 47 bd
       -0.05293133 0.009343698 -0.0691071 -0.048808362
0000d0 a0 ec 3f 3d 53 48 03 bd 27 16 c2 3c f4 a0 8c bc
       0.046856523 -0.032051396 0.023692204 -0.017166592
0000e0 2a e7 dc 3c 70 9c 42 3d 9d 22 ef 3c ab 98 0b bd
       0.026965696 0.04751247 0.02919131 -0.034081142
0000f0 7e 7f 4c bb 77 0f a5 3d 35 35 4b 3b d9 e5 27 bd
       -0.003120392 0.0805959 0.0031007056 -0.040990684

weight f4 [128, 64, 3, 3]
000000 a9 7a 5f bc 81 23 94 bc 76 37 da bc c8 63 88 b9
       -0.013640084 -0.018083336 -0.026637774 -0.00026014284
000010 5d 82 42 bd cd cb 53 3c e5 03 16 3d 99 c2 99 3d
       -0.047487605 0.012927008 0.036624808 0.0750782
000020 a6 f9 07 3d a2 8c fd 3c aa 88 2e bc eb 10 7e 3c
       0.033197068 0.030950848 -0.0106527 0.015506963
000030 9e 0e 44 3a 71 20 2d 3b c8 41 dc 3c 14 2d ef bc
       0.0007478985 0.0026417042 0.026886836 -0.0291963
000040 f8 7f f0 3d e8 d2 29 3d b7 f4 e1 bc 8f 2f c2 3c
       0.11743158 0.0414609 -0.02758251 0.023704318
000050 1b 0e 56 bb 70 c3 78 3d 1e 97 d2 3c 13 1d 04 3d
       -0.0032662216 0.06073326 0.025706824 0.03225429
000060 77 53 ab 3b 8a 07 d6 bc dc a0 54 3c ab 82 43 3d
       0.0052284556 -0.026126642 0.012977805 0.047732037
000070 e2 25 ee 3b 21 90 bb 3c ea 9f 0c bd 7b aa 05 3d
       0.0072676996 0.022895874 -0.034332193 0.032633286
000080 b1 c4 e6 bd 5c bf a2 bd e0 d1 a3 ba de 60 10 bd
       -0.11267985 -0.07946655 -0.0012498461 -0.03524863
000090 fc a2 44 3d c6 b1 52 3d 31 e7 91 3b fd b1 1e b9
       0.048006997 0.05143907 0.004452609 -0.0001513436
0000a0 87 85 88 bc bf c1 05 bd d6 a0 98 bb c2 59 ca 3b
       -0.016665233 -0.032655474 -0.004657845 0.0061752507
0000b0 de 46 ad 3c 1e 66 27 3d b2 46 f1 3b 97 c7 fb bc
       0.021151956 0.04086887 0.007363164 -0.03073482
0000c0 9d bc 00 3d ea ef 31 3d 70 7b c9 b9 67 9d 06 3a
       0.031429876 0.04344169 -0.00038429676 0.0005135149
0000d0 49 8f 8b bc ed 8a 34 bd 02 45 ad 3b 67 87 d9 bc
       -0.017036097 -0.044077802 0.0052877674 -0.026553823
0000e0 9d 43 6c 3c 97 2e a6 3c 06 64 a9 3d 7f 0d 7d bc
       0.014420417 0.020285888 0.08271031 -0.015445112
0000f0 68 36 98 bc 5f 0b b4 bc e6 44 b4 3b 63 80 1b bb
       -0.01858063 -0.021978078 0.0055013774 -0.0023727647
000100 cb 36 44 3d 1d 47 40 bd f0 8f 66 3d f5 52 80 3d
       0.047903817 -0.04694282 0.056289613 0.06265823
000110 67 c9 1f 3d e0 02 18 bc 40 d0 7c bc 9c 8c 72 3c
       0.03901043 -0.009278029 -0.01543051 0.014804032
000120 e6 62 ed bb fd af 23 3d 22 bf 19 bc 9b 29 1e 3d
       -0.0072444556 0.039962757 -0.0093839485 0.038613897
000130 05 ce 9b bc d3 26 f2 bc 9b 09 6e bd 43 d3 b6 3c
       -0.019019136 -0.029559528 -0.05811463 0.022317534
000140 21 bb 24 3d dd 2b 97 bb 83 ff 55 3c 12 2f 9c 3c
       0.040217523 -0.004613383 0.013061407 0.019065414
000150 f9 ef 7f 3d 9c c5 6e 3c 99 16 d4 bc f5 96 40 bc
       0.062484715 0.014573481 -0.025889682 -0.011754741
000160 82 74 0b 3c 97 6e 1f ba 59 59 5f 3c 23 ed dc b9
       0.008511664 -0.0006081848 0.013632142 -0.0004213835
000170 2f c4 46 bc 09 b7 8b bc da 0d e3 3d 3b f7 44 3d
       -0.012131735 -0.017055051 0.11086626 0.04808734
000180 9b 56 45 bb 36 38 40 3d 51 98 0b bc 6f 10 8c 3d
       -0.0030111435 0.046928607 -0.008520202 0.06839072
000190 e3 fb 02 bd 83 08 c5 bc 2b 85 cf bc 8c 8f 8d bc
       -0.0319785 -0.02405191 -0.025332054 -0.017280363
0001a0 d4 0e da 3c 4a 9a ae bd 6c 7f 2b bd 03 06 d9 bc
       0.026618399 -0.08525522 -0.041869566 -0.026492124
0001b0 b7 58 9d bc 30 e8 d9 3c 44 c6 d9 bc 4f 08 17 3d
       -0.019207342 0.026599973 -0.026583798 0.036873158
0001c0 9e 06 20 3d 87 d8 90 bd 35 08 57 3c 92 1e 3e bc
       0.03906881 -0.07072549 0.013124515 -0.011603968
0001d0 ad 58 02 3d 59 d0 dd bc 7c 8c 55 bd fe e5 dd 3c
       0.03182285 -0.027076887 -0.05213593 0.027087208
0001e0 7c 7f a0 bc 08 2f 96 bc a9 7d 27 3c b8 59 0b 3d
       -0.01959204 -0.018332973 0.010222831 0.03402111
0001f0 77 de 02 3c 9d fd 2c bd f1 38 2c 3c 0d 36 4a bd
       0.00798761 -0.042234052 0.010511623 -0.049367953
000200 79 4b 02 3b 2c 92 2a 3d cb 57 4c 3d ac fe f0 3d
       0.001988141 0.041643307 0.049888413 0.11767325
000210 56 05 82 bc 62 8f 2d 3d 10 fe 16 be c8 a6 6a 3c
       -0.015871685 0.04237307 -0.14745355 0.01432199
000220 2f c0 41 bd 7b 1f d3 bc 95 f2 b7 3b 5d 8b 02 bd
       -0.04730242 -0.025771847 0.005613635 -0.03187119
000230 b1 fb f6 bc 9f 91 24 bd ef 97 46 3d fd 3e fc 3c
       -0.030149313 -0.040177938 0.04848474 0.030791754
000240 ca bc b9 bc a9 53 52 3c de 85 26 bd 90 0c 1f 3d
       -0.02267303 0.012837329 -0.04065501 0.03883034
000250 54 74 98 bd aa 4a 8b bc d1 47 76 3c ec 4a a9 bb
       -0.07444063 -0.017003376 0.015031771 -0.005166402
000260 93 83 cd bc 09 a9 24 bd db 5d 52 3c 8b e0 1a 3b
       -0.025087154 -0.040200267 0.01283976 0.0023632373
000270 e8 a3 e0 bc 64 ce ad 3d 1d b0 4c 3c 9d be a7 ba
       -0.027421907 0.084866315 0.012493161 -0.0012797896
000280 da ba 96 bd 01 3b 4c 3d 13 97 84 bc df 24 09 bd
       -0.07359858 0.049860958 -0.016185319 -0.03348243
000290 5e b1 3a 3d 4e e8 04 3a c2 1e 55 3d 92 74 9e 3d
       0.045579307 0.00050700165 0.052031286 0.07737078
0002a0 31 96 d7 3c e4 0e ec bb 0c 97 80 bd d3 a8 2e 3d
       0.026316734 -0.0072039235 -0.0627881 0.042641472
0002b0 22 1a 67 3a 78 a1 b7 bb 80 8b d3 bc 97 78 c9 bb
       0.0008815845 -0.0056039654 -0.025823355 -0.0061484086
0002c0 9e f6 2a bd 16 8e 02 bd ae 27 1a 3d a7 a2 ad bc
       -0.0417391 -0.031873785 0.037635498 -0.021195723
0002d0 9a 3c 20 3d 32 34 fd bc 7e 3b d3 3c 38 15 2b 3c
       0.039120294 -0.030908678 0.025785204 0.010442071
0002e0 e9 50 a3 3b 2a 4d 60 3d b6 f9 58 bd 29 90 20 3d
       0.0049840105 0.05476109 -0.052972518 0.03919998
0002f0 d4 b9 00 bd fd db 24 bd 98 58 6c bc da 31 44 bc
       -0.03142722 -0.04024886 -0.014425419 -0.011974776
000300 03 c8 9a 3d cf 0c 91 3b 4d df 19 3d f8 4d c1 3c
       0.075576805 0.0044265757 0.03756647 0.023596749
000310 99 9e 2c 3d 5e c2 8e bd 1d 32 2c bc 07 9b 98 bb
       0.042143438 -0.06970666 -0.010509995 -0.0046571526
000320 74 b2 6d bc a3 b7 0d 3b 64 b5 b4 3d 60 65 4e bd
       -0.014507879 0.0021624349 0.0882366 -0.050389647
000330 cd b3 1e 3d fa 2c 4c 3c 36 63 cf bc 6d 71 3f 3c
       0.03874569 0.012461895 -0.025315862 0.011684758
000340 c7 a9 71 bd c5 2a 07 3d b0 43 78 bc 40 9e a2 bc
       -0.058999803 0.032999773 -0.015152857 -0.01985085
000350 c0 ab 9d 3d 5f 15 18 bd 61 ea 12 3c 7d 3d 11 bd
       0.07698774 -0.037129756 0.008967013 -0.03545903
000360 48 04 9b 3c 1e 9d 02 bd 6b 02 5e bc e8 98 21 bd
       0.01892294 -0.03188812 -0.013550381 -0.039452463
000370 0a 91 2e 3d a2 c6 9e bc f6 5c a1 3c f3 77 ce 3a
       0.04261879 -0.019381825 0.019697648 0.00157523
000380 9c e7 a6 bd 84 3a 87 3c 7b 7f 9f 3d f9 2a 02 3b
       -0.08149645 0.016507395 0.07787987 0.001986204
000390 45 f9 b5 3c 8d f4 a5 3b c5 7e f0 3c dd 2a b7 3c
       0.022213588 0.005064553 0.029357323 0.022359306
0003a0 ad 7a 67 3c d4 82 26 bc 0b 56 75 3d aa f8 9c 3c
       0.014128369 -0.010163028 0.05989651 0.019161541
0003b0 82 ce 1c bd 02 76 25 bd 0c a3 8b ba 1c e8 18 3c
       -0.03828288 -0.040395744 -0.001065345 0.009332683
0003c0 bc 90 44 bd be e9 a5 3b c3 7b 2c bc 3e f3 86 3b
       -0.047989592 0.0050632646 -0.010527554 0.004118352
0003d0 3c 64 4b 3d bf 19 ef bc f9 9b 47 3c 88 73 01 bd
       0.049656138 -0.029187081 0.012183183 -0.03160432
0003e0 3d f0 8f bc d7 1a 54 bc b9 42 d8 3b 27 d9 7d bb
       -0.01757061 -0.012945852 0.006599751 -0.003873417
0003f0 f8 2c 64 3d bc b9 1b bc ca 84 02 3d 5e 70 02 bd
       0.055706948 -0.009504732 0.03186492 -0.031845443

bias f4 [128]
000000 8d 07 74 3c 9c 3b d9 3c 6c e2 1f bd a0 6a ea 3c
       0.014894378 0.026517682 -0.039034292 0.028615296
000010 5a d0 d4 bc c1 e6 31 bc 39 46 a8 bb ed 96 fa 3c
       -0.025978256 -0.010858239 -0.0051353243 0.030589545
000020 22 cf 22 bc 56 d2 23 bd 80 35 a0 3c eb 33 16 bc
       -0.00993708 -0.039995514 0.01955676 -0.009167652
000030 a9 3b 81 3c b1 35 73 bc 87 fc 18 bd bc e3 89 bc
       0.015775518 -0.014844344 -0.037350204 -0.016832225
000040 99 45 d4 bc 9f ca 8e bb 11 40 38 3b 82 e6 48 3d
       -0.025912093 -0.0043576504 0.0028114358 0.049047954
000050 ea 3e bc 3c b3 e0 f2 3c 20 31 f3 b9 4e 57 c0 3b
       0.022979219 0.02964816 -0.00046385173 0.0058697825
000060 c8 a0 1d bd 88 e3 80 bc 79 dd 16 bd 88 3a 1a bd
       -0.03848341 -0.015733495 -0.036832307 -0.037653476
000070 fe 46 9e 3c a0 4f b6 3b 6b 5b 19 3d d0 4c ef 3b
       0.019320961 0.0055636913 0.0374407 0.007302858
000080 19 6a df bc c7 0e 0b 3d 01 b1 20 bd f1 3d 97 bc
       -0.027272271 0.03394964 -0.039231304 -0.018462153
000090 8b 2f a2 3b 46 41 33 3d 2d ec 84 bc 62 bb af 3c
       0.004949515 0.04376342 -0.016225899 0.021451656
0000a0 18 aa 01 bd 9b ce 27 3d 4f 59 86 bc 25 41 ff 3b
       -0.031656355 0.04096852 -0.016400008 0.0077897483
0000b0 cc 77 03 3d 46 fc 10 bd d3 1a 13 ba 76 ab ab 3b
       0.03209667 -0.035396837 -0.0005611602 0.0052389456
0000c0 c7 01 c8 bc f4 2d e8 3c cf 3a d3 bc 2e 14 c8 3c
       -0.02441491 0.028342225 -0.025784878 0.024423685
0000d0 47 52 c2 3c 98 08 b8 bc f1 73 96 bc 5d 72 2d bd
       0.023720874 -0.022465035 -0.018365832 -0.042345393
0000e0 86 d0 8e 3c dd fb e7 bc 7a b3 a2 bc 03 50 b7 bc
       0.017433416 -0.02831834 -0.019860972 -0.02237702
0000f0 2a 40 6b bc 19 35 82 bc 37 ee cf 3c 4e e0 dd 3c
       -0.01435856 -0.01589446 0.025382144 0.027084496
000100 bb 84 f9 3c 90 d1 cc 39 0d a6 2e bc 62 2d bd bc
       0.030458799 0.00039066048 -0.010659707 -0.02309293
000110 da 0e bb bc 37 d1 f1 3c 74 43 05 bd 45 d7 1f bc
       -0.02283423 0.029518707 -0.03253503 -0.009755914
000120 39 2b 28 bd c4 fe 83 3b a4 e9 a7 3b bc a3 f8 3c
       -0.041056845 0.004028173 0.0051242877 0.030351512
000130 20 99 86 bc 27 57 df 3c 5a 06 1b 3b d0 f3 2d 3c
       -0.016430438 0.027263237 0.002365491 0.010617211
000140 ce 21 b6 bc de e5 7c bc ce 15 f8 bc 31 0b 1c bd
       -0.022232916 -0.015435664 -0.030283835 -0.03809661
000150 6e 5d db 3b b4 bb 32 3c d6 48 cb bc 9e 31 39 bd
       0.0066944873 0.01090901 -0.024815004 -0.045213334
000160 ee 6d ac 3c 32 84 9e bc af 12 03 3c 11 5e 00 bd
       0.021048512 -0.019350145 0.00800006 -0.03133971
000170 e3 db d2 3b 30 0e 25 3d 2b 70 9d 3c 8f 5e 14 3b
       0.006434904 0.040296733 0.019218525 0.002263937
000180 d4 18 52 bc 97 4b 42 bc 3f 37 6c bc 4f d9 b5 bb
       -0.012823302 -0.011858842 -0.014417469 -0.005549587
000190 1b 20 c5 3c 27 ab 2d bd ae 6d 00 bd 28 6a de bc
       0.02406316 -0.04239955 -0.0313546 -0.027150229
0001a0 1e ef 4b bc 3d 37 5c bc 0a e7 0f bc f0 c0 93 3a
       -0.012447147 -0.013440904 -0.008783111 0.001127271
0001b0 7b ad 84 3c 9f 76 91 ba f3 e0 06 3c 3a 84 4a 3b
       0.016196003 -0.0011097974 0.008232343 0.0030901567
0001c0 72 2e 51 3b 89 2a 2f 3c f5 ff 15 bd 1d 60 4a bc
       0.0031918553 0.0106912935 -0.036621053 -0.012352017
0001d0 ba 1f 3d bc 09 d0 ba bc 77 43 b6 bc 51 04 e6 bc
       -0.011543209 -0.022804277 -0.022248967 -0.02807823
0001e0 d7 ce 4e bd 3b a4 8c bc 58 b5 fe 3b 4b 8d c8 3b
       -0.050490227 -0.017168155 0.0077730827 0.006120359
0001f0 cf b9 b4 3c 9c a6 aa 3c 5d 8b d0 3c 3c 8c a8 bb
       0.022061257 0.020831399 0.025457079 -0.0051436704

weight f4 [10, 512]
000000 5b b1 38 bd e5 de 9c bd f0 bc 79 3c 46 70 2a bd
       -0.045091014 -0.07659701 0.0152428 -0.04161098
000010 0a f2 fa bc 81 c4 62 bd 4c 50 44 bd 64 98 60 3d
       -0.030632991 -0.055363182 -0.04792814 0.05483283
000020 8a f1 20 3d 73 6f 54 bd a7 9c 12 bc 88 16 c1 bb
       0.03929285 -0.0518641 -0.008948482 -0.0058925785
000030 6b 02 6e 3c e9 24 7e 3b 21 45 14 bd 04 2d 86 bd
       0.014526944 0.0038779324 -0.03619874 -0.06551555
000040 ec c4 f7 3c fe 03 bb bc 6e 59 06 bd b0 03 2c bc
       0.030245267 -0.022829052 -0.03280013 -0.010498926
000050 28 a0 20 bd 35 c9 01 3d bc b1 7e bd 78 68 20 3d
       -0.039215237 0.031686027 -0.06218122 0.03916213
000060 b6 c2 98 bc d6 74 88 bb c9 55 32 bd 10 d1 ff bc
       -0.018647533 -0.0041643186 -0.043538842 -0.031227618
000070 a6 0a 17 3d 92 ff 1e 3d c9 b3 dd bd 5a 93 a8 3d
       0.03687539 0.03881795 -0.10825307 0.0823123
000080 24 65 1d bb 52 04 b5 bd 46 01 d3 bc eb 7d 33 3d
       -0.0024016583 -0.08838715 -0.025757443 0.043821257
000090 46 79 47 bc 51 dd d6 bb ec 98 b5 bd e0 da 31 3d
       -0.01217491 -0.0065571447 -0.08867058 0.043421626
0000a0 f9 a6 ee bc 37 ee 12 3d a6 bd 68 bc 3e fc 0e bd
       -0.029132353 0.03587171 -0.014205372 -0.034908526
0000b0 19 21 52 bc a6 34 54 3d b2 cd 5e bc ca 81 fa bc
       -0.012825274 0.051808022 -0.013598846 -0.030579466
0000c0 47 dd b9 bb 7c 4a 50 3d fe 2a c9 bb 4b 81 07 3d
       -0.0056721303 0.050852284 -0.0061391583 0.033082288
0000d0 7d c8 0c 3d 08 a6 af b8 7c 84 d5 bc 0d 47 0f be
       0.034370888 -8.375576e-05 -0.02606415 -0.13991947
0000e0 ac 47 ea 3b 9d 66 33 bc 23 c7 83 3c 54 3b c8 bc
       0.0071496572 -0.010949758 0.016086167 -0.024442352
0000f0 88 20 06 bd ab e8 33 bd a8 c0 cc bd e4 f0 ef 3c
       -0.032745868 -0.04392306 -0.09997684 0.02928967
000100 5f b4 38 bd 89 ea 02 3d 29 7c 6b be 06 50 f4 bd
       -0.04509389 0.03196195 -0.22996582 -0.11929326
000110 ab 49 8c ba 9b 4b 4e bc 69 61 34 bd 2f a3 40 3d
       -0.0010703107 -0.012591268 -0.04403821 0.047030624
000120 a5 b3 86 bc b3 36 99 3c 7b 7c e7 3c fb 14 34 bc
       -0.016443083 0.01870284 0.0282576 -0.01099133
000130 ea 11 99 3c 58 6c 0a 3b fd 56 99 3c bf 83 28 3d
       0.0186853 0.0021121707 0.018718237 0.041141268
000140 16 55 1e bd 77 88 50 3d 0e e8 5c bd 66 89 bf bd
       -0.038655363 0.050911393 -0.053932242 -0.093523785
000150 e8 88 e8 bc 9a 39 1f bd f9 cb b6 bd 78 e0 02 3d
       -0.028385594 -0.038873293 -0.089256234 0.03195235
000160 75 54 6b 3c e3 27 19 bc f4 eb ca bd 40 07 22 3c
       0.014363398 -0.009347889 -0.09908286 0.009889424
000170 60 b6 4d 3d 68 c2 d2 3c 19 47 6e bd a8 0c cd 3c
       0.050222754 0.025727466 -0.058173273 0.025030449
000180 c1 bb 51 3c 27 13 df bc 92 7e 63 3d 40 2e bc 3b
       0.012801112 -0.027230812 0.05554063 0.005742818
000190 32 b4 a9 bc 3d 19 80 bc cd 46 3c 3c bc 2e 7c bc
       -0.020715807 -0.015637035 0.01149149 -0.015392002
0001a0 e0 7b 89 3d a0 91 a7 bd bb 11 6f bc 7b 49 05 3b
       0.067130804 -0.08182073 -0.01459163 0.0020337987
0001b0 3e b9 d3 3c fa 94 e4 bd cf 8d c2 bc d8 68 9f bd
       0.025845166 -0.111612275 -0.02374926 -0.07783669
0001c0 bf b0 42 bd c7 5e 34 bd cb 2c 05 bd 72 89 98 3d
       -0.04753184 -0.0440357 -0.03251342 0.074480906
0001d0 db 80 3b 3d c9 f7 35 3c 4b c7 1c bd 0a 09 a8 bd
       0.045777183 0.01110644 -0.038275998 -0.08204849
0001e0 23 f7 9a bd 7a 4e 12 bd 8c ab 9a 3d df 84 ef bc
       -0.07566669 -0.035719372 0.07552251 -0.029238163
0001f0 18 63 ed bd ec 30 30 bc e2 8f 29 3d ba 6c f2 3c
       -0.11591166 -0.010753851 0.041396983 0.02959286
000200 29 8a ba bd a4 67 7f bd 4b 3f 8d ba 75 e2 cc 3c
       -0.09108383 -0.0623547 -0.0010776309 0.025010327
000210 5b 8d 9c bc 49 f8 82 bc ee 14 1d be 9b c8 00 be
       -0.019110372 -0.015987532 -0.15340015 -0.12576525
000220 72 e4 40 bd 9e a7 94 bd 67 26 64 3d f9 a3 cd 3b
       -0.047092862 -0.07258533 0.055700686 0.0062756506
000230 5f 8c 74 bd 6f 9c fe bc 20 1d 0b 3d 55 9b 14 3d
       -0.05970418 -0.031080453 0.033963323 0.03628095
000240 d8 aa ff 3c 47 9f 05 3c 4a 19 a1 bd 28 47 89 bd
       0.031209394 0.00815565 -0.07866152 -0.06703025
000250 8a 95 e5 3b b3 a6 fd bc 13 7e 2b 3d 68 d8 90 3c
       0.007006352 -0.030963277 0.04186828 0.017681316
000260 c2 63 0a 3d b7 13 95 3c 05 b7 52 bd 8b 20 26 be
       0.033786543 0.018197877 -0.051444072 -0.16223352
000270 ab 21 c2 bc 61 93 e7 bc 3e 29 07 bb 42 00 1e 3d
       -0.023697695 -0.028268518 -0.0020623947 0.038574465
000280 b9 97 e5 bc 04 49 68 bd 60 4f 71 3d 86 9b 4e 3c
       -0.028026449 -0.056710258 0.05891359 0.012610322
000290 54 21 9f bc 06 33 a9 bd 46 c2 a3 3c 3d 90 69 3d
       -0.019425072 -0.08261685 0.019990098 0.057022322
0002a0 a1 ba dd 3a 8e 98 3e bd 1e 6c 68 bd e9 30 83 3d
       0.0016916582 -0.046532206 -0.056743734 0.06405813
0002b0 6b e3 de 3b dd 14 98 3d ee bd 0c 39 46 2a f8 bd
       0.0068020127 0.07425854 0.00013422195 -0.12117438
0002c0 90 99 01 3d 83 44 fa bd f0 24 15 be 85 f6 b3 3d
       0.03164059 -0.12220099 -0.14564872 0.08787254
0002d0 a4 f9 40 bd 38 35 eb 3c 4a c0 d8 bb 7e 82 8e 3d
       -0.047113076 0.0287119 -0.0066147195 0.06958483
0002e0 46 19 58 bd 4f 6e 7c 3d 8a 6c 82 bd 23 f3 34 bd
       -0.052758478 0.061628636 -0.063683584 -0.044177186
0002f0 a9 80 1a bb d5 9f ee 3c cf a9 1b bd ad fb 05 3d
       -0.0023575223 0.029128948 -0.03800374 0.03271072
000300 fa 59 03 bd b1 f2 62 3d bb 47 f6 bd bc c8 ea bd
       -0.03206823 0.05540723 -0.120254 -0.11464068
000310 c4 47 69 bd 32 24 2d bc 18 e2 27 3d 7e 87 48 bc
       -0.056953207 -0.010567712 0.040987104 -0.012239335
000320 37 81 f6 bc 8b e8 8c bb 82 79 85 bc 44 73 58 3b
       -0.030090911 -0.004300182 -0.016293291 0.0033027688
000330 50 e5 d8 3c a5 bc 41 bd 3a 27 20 3d d8 b2 44 3c
       0.026476532 -0.047299046 0.03909991 0.01200553
000340 84 59 4d bd 64 40 32 bd 70 fc 8e 3c 28 39 da 3b
       -0.050134197 -0.04351844 0.017454356 0.0066596456
000350 f8 69 48 bc fd 65 0a 3d 18 22 ad bd c3 09 91 3d
       -0.012232296 0.03378867 -0.084537685 0.0708194
000360 7b cc fd bb b5 a8 66 3d d4 77 ab bd a1 5d 83 3d
       -0.0077453232 0.056313235 -0.08372465 0.06414343
000370 6b f0 33 bb a9 91 41 bd 9d 59 39 bd 88 7f f6 bd
       -0.0027456533 -0.047258053 -0.045251478 -0.120360434
000380 45 4d 60 bc 93 93 09 bc 5c 76 49 bc 42 fc e0 bd
       -0.0136902975 -0.008397001 -0.0122962855 -0.10985614
000390 74 d2 35 bc a1 da b7 3c d9 61 00 be 05 5e 22 3d
       -0.011097539 0.022443118 -0.12537326 0.039640445
0003a0 bb 87 66 bc 38 ac 0d 3d c2 2c 4c 3b e1 ed 8e bd
       -0.014070447 0.03458807 0.0031154607 -0.069789656
0003b0 f7 3e 9a bd 05 f4 11 bc b1 ce 45 3d c9 a1 40 3d
       -0.07531541 -0.008908276 0.04829282 0.04702929
0003c0 de 65 76 bc 99 ee e6 3c 6b 05 b2 bd 38 34 ef 3c
       -0.0150389355 0.028189944 -0.0869244 0.029199705
0003d0 2a e2 bb 3c 46 6d 80 bd 0a 09 3b 3d bf 6c 63 bd
       0.022934992 -0.06270842 0.045662917 -0.05552363
0003e0 bd 24 11 3d 1f 5d cf bd ee 25 cc bd 39 13 64 bd
       0.035435427 -0.10125183 -0.09968172 -0.055682395
0003f0 70 8d 53 bb c6 4d ea bd 89 0f aa bd eb 43 f4 bd
       -0.0032280348 -0.11440615 -0.08303744 -0.11927017

bias f4 [10]
000000 3b 51 0c 3d 6e 1a 03 3d a6 fc 67 bc 1a bc a3 3a
       0.034257155 0.032007627 -0.014159357 0.0012491972
000010 a6 a5 aa bc 50 15 88 bc 43 f2 22 ba 77 85 b6 bc
       -0.02083094 -0.016611725 -0.00062159094 -0.022280438
000020 57 6b 0f bc c1 74 33 bd
       -0.008753619 -0.043812517
