mlp.pt (torch_old, 383466 bytes, 8 tensors)

weight f4 [64, 784]
00000000: 78b9 e2bc dff8 1c3b b76a 0dbd 744c c7bc
00000010: 2e28 a33c 2039 b13c 1c56 ae3c eda1 3abc
00000020: 31c3 d1bb cd98 1cbb 0f7f ffbb 88d2 df3c
00000030: f54d 2ebc 9f9f 8c3b 6795 9cbb e8d3 ed3c
00000040: 6c7a 6f3b 8ce3 06bd 04e3 eb3c ca39 f3bc
00000050: 310b 6cbc e447 883c 3843 c63c 436c 393b
00000060: 629e a53c 56c7 fcbc b38b a0ba dcec cf3c
00000070: 3212 603c d391 223c 34c9 a7bc e6fc d2bc
00000080: c568 e83b ee5f c7b9 075e 653c 6e21 29ba
00000090: 031e d33c 5c36 a2bc 7c24 d93c 5fff 07bd
000000a0: 5203 f33c 5926 82ba dfc7 be3b 33a5 523c
000000b0: c222 853c bf54 74bb 0af4 12bd be94 97bc
000000c0: 7faf c9bc 9148 ed3c d896 603c 1d45 6dbc
000000d0: a8c8 e93b 41d0 2f3c c50d 0bbc 7a5b 00bc
000000e0: 0102 d6bb c550 953b 8dfd ee3c 7d54 723c
000000f0: 059f 11bd bd26 8dbc 5749 15bc 2e5f cebc
00000100: fcc5 c83c ef3f 623c 2c66 84bc 1170 b33c
00000110: c5d4 8ebc e20b 1cbb 6aba febc 55df ad3b
00000120: 76b2 07bd b6ad b6bc 8349 a53b eefa c8ba
00000130: 322d eabc e578 56bc 57cc b5bc f621 a4bb
00000140: 55a3 383c 5cbd 0abd be72 ccbc 0f01 06bd
00000150: 0e48 04bd 4e2e ebbc 63d4 c3bc 4411 0dbd
00000160: 3a2f 9abc 29aa 0ebd 801e f4bb 5e86 27bc
00000170: de4e 0ebc c4f7 ebbc 4377 b4bc f905 443c
00000180: 6395 843a 56c9 3a3d 8fbc 7cbc 8f48 75bc
00000190: 24ca 1bbd a639 e43c b3f7 34bd 111c 87bb
000001a0: 172f e23c d39e 2bbd 391c b5bc c8b3 28bd
000001b0: d73c ab3b f268 3f3b f010 cdbc d8f2 eb3c
000001c0: 12ab e2bc 0a69 e43b 8f25 0cbd b142 c33c
000001d0: 81a4 e4bc 55eb 31bc ecc6 cf3c 9c41 2fbc
000001e0: 55c5 d73c edf2 343d 7d30 0dbc 438f 263c
000001f0: 7e5f 373c eedf 24bc 8688 dbbc 3170 d33b
00000200: 35be 123b 4687 82bd 4dda e33b 31fc c6bb
00000210: 283d 5cbd 910b 263c 0b6c 2fbd 8164 63bc
00000220: 5fd4 edbc b347 e53c 005c a43c 964f 8dbc
00000230: e7fb f4ba 289f e63c c353 14bd 0bfa 8d3c
00000240: f344 92bb 8d90 aabc dec4 83b9 de3f ce3c
00000250: c65b bc3c 2c12 0b3d 0913 27bb a035 2abd
00000260: 49bb 92bd 9193 b3bc 80a2 30bd 05b6 dcbb
00000270: 6491 4fbd 44e6 99bd dc55 34bd 24fb dabc
00000280: 38bc 82bc 83ce 3ebd 5457 3fbc a566 99bc
00000290: b8dd 3abc cd74 a63c 6edb b63a 52ab f5bc
000002a0: 0aec ac3c eab8 e93c 79c8 13bc 11e3 463c
000002b0: 8b9c e63c 5b0c 133d e806 c3bb f3fa f5bb
000002c0: cc9a 4bbc caae acbb 0d8c 0fbd d250 0abd
000002d0: 78d7 d6bc 2890 063d 9e32 ab3c 6282 f23b
000002e0: d88d 743b 1a30 45bd 623c 163d 8101 08bd
000002f0: 31ae 93bc 2ad5 413c 6dcf 7e3c 6d31 7ebc
00000300: b8a3 633c 6961 7fbb 1517 9c3c f905 acbc
00000310: 58ae bb3c d974 723c cbde 32bc cc47 843c
00000320: 2d30 5a3c 5c71 3c3d 59f5 023d 9374 c539
00000330: 0506 ccbc c068 33bd a1f8 f9bb 7fa7 aa3c
00000340: 5dc1 4c3d 5672 543d de8a d63d 6eb5 8d3d
00000350: 70e2 ca3d 75c1 8e3d 282f 0e3d a0c8 343d
00000360: 2747 ff3c 351a 583c 5d7b 153b 5486 52bd
00000370: 96db fabb d2ae 31bc da4e a5bc d7a8 1abc
00000380: c247 90bc 638f 3ebc 42a1 bdbc f95b 353d
00000390: eaf8 603d 87f9 c5bb f64e afbc 9ee5 25bd
000003a0: c109 1cbd 4331 02bb b6e5 2fbb 48df 87bc
000003b0: c66c 2f3d b3f6 c63d da68 2a3e f022 1e3e
000003c0: cfb1 e03d 3c12 ad3d 9345 983c 1cd1 0d3d
000003d0: 55db 663d 2832 853a 3d2f 3d3a 6d9f 6d3c
000003e0: 569b 0cbd 5f01 09bd 046f 483c 6a6a fabc
000003f0: cadf a03c e8e5 e4bc 4fb4 b73c fe18 c239
-0.027676329 0.002395205 -0.0345256 -0.024328448 0.01991662 0.021633685 0.021281295 -0.011391145
-0.0064014425 -0.0023894787 -0.007797129 0.027322069 -0.010638704 0.0042914893 -0.0047785523 0.029031709
0.0036541475 -0.03293185 0.028794773 -0.029690642 -0.014406965 0.016635843 0.024201974 0.0028293289
0.020217124 -0.03085677 -0.0012248665 0.025381498 0.013676213 0.0099224625 -0.020481683 -0.025755357
0.0070925676 -0.0003802771 0.013999469 -0.000645182 0.025771147 -0.019801311 0.026506655 -0.033202525
0.02966467 -0.0009929641 0.0058221663 0.012856769 0.016251925 -0.0037281958 -0.035877265 -0.018503543
-0.024619816 0.028965266 0.013707839 -0.01448181 0.007134516 0.010730804 -0.00848717 -0.00783431
-0.0065310006 0.0045567476 0.029173637 0.014790651 -0.035552043 -0.017230386 -0.009111724 -0.02519187
0.024508469 0.013809188 -0.016162 0.021904023 -0.01743544 -0.0023810794 -0.031094749 0.0053061643
-0.033129178 -0.022299629 0.0050441637 -0.0015333572 -0.028586004 -0.013090347 -0.022192163 -0.0050089313
0.01126941 -0.033871993 -0.024957057 -0.032715853 -0.03229528 -0.028708603 -0.023904985 -0.034440294
-0.018821348 -0.034830246 -0.007449925 -0.010224907 -0.008685796 -0.028804667 -0.022029525 0.011964315
0.0010115321 0.045602165 -0.015425815 -0.014970913 -0.038034573 0.02785952 -0.044181537 -0.004123219
0.027610345 -0.041899513 -0.022108184 -0.041187078 0.0052257585 0.002920684 -0.02503249 0.02880232
-0.027669463 0.0069705294 -0.034215506 0.023835512 -0.027910473 -0.01085933 0.025363408 -0.010696795
0.026339212 0.044176985 -0.008617518 0.010165992 0.011192201 -0.010063155 -0.026798498 0.0064525832
0.0022391204 -0.063734576 0.0069535137 -0.006072544 -0.05376926 0.010134594 -0.042827647 -0.0138789425
-0.02903193 0.02798829 0.0200634 -0.017249864 -0.0018690795 0.028152063 -0.036212694 0.017331144
-0.004463786 -0.02082088 -0.00025132945 0.025176939 0.02299298 0.033952877 -0.0025493524 -0.041555047
-0.07164628 -0.021920951 -0.043123722 -0.0067355656 -0.050675765 -0.07514623 -0.044027194 -0.026731081
-0.01595889 -0.046583664 -0.0116785355 -0.018725703 -0.011405401 0.020319367 0.0013950893 -0.029988918
0.021108646 0.028530557 -0.009019964 0.012139098 0.028150817 0.035900455 -0.005951751 -0.007506722
-0.012427043 -0.00526986 -0.035045672 -0.033768483 -0.02622579 0.032852322 0.02089816 0.0074007967
0.003731599 -0.048141576 0.03667868 -0.03320456 -0.018027397 0.011830607 0.015552384 -0.015514714
0.013894014 -0.0038967973 0.019053975 -0.020998942 0.022910282 0.014798366 -0.010917376 0.016147517
0.01331715 0.046006545 0.031972263 0.00037661623 -0.024905214 -0.04380107 -0.007628516 0.020831821
0.049989093 0.05186685 0.104757056 0.069193706 0.09906471 0.06970493 0.03471294 0.044136643
0.031161858 0.013189842 0.0022809126 -0.051397637 -0.007655571 -0.010844903 -0.0201792 -0.009439669
-0.017612342 -0.011630866 -0.023148183 0.044277165 0.054924883 -0.006041709 -0.021399956 -0.040502183
-0.03809524 -0.0019865788 -0.00268398 -0.016585961 0.042828344 0.09715023 0.1664156 0.15443015
0.10971414 0.084507436 0.018587863 0.03462325 0.056361515 0.0010162042 0.0007216817 0.014503342
-0.034327827 -0.033448573 0.012233499 -0.03056832 0.019637961 -0.02794166 0.022424845 0.00037021184

bias f4 [64]
00000000: ba26 aebc 316a cbbc 4339 953c d486 183d
00000010: 9a7c d03c 49d9 a3bc 6e90 983c 5a12 b7bc
00000020: fd29 cfbc 62ee 923c 379a 073d 3047 c63c
00000030: d020 033d 1e87 9fbb daa0 91bc 8d88 d9ba
00000040: f974 a83c f4c0 6f3a a6a1 3dbb dda6 66ba
00000050: 3ff7 6cbb 518d 4ebb df24 e63c ed5d 363c
00000060: 5e31 203d 1d91 853b ad93 f73c 17cf 20bc
00000070: 7f06 8b3c d028 393c 4efa 27bb e91a 603c
00000080: 31d3 7b3c 030c a639 a48c 6dbc 8bbd 2dbc
00000090: 69f1 943c f033 5cbc c659 113d 1383 edbc
000000a0: 5c79 02bb 751d 3b3c d158 093c f8a1 d5bc
000000b0: c8b0 c53c 17b6 e9bc 5074 603c 44ba c03c
000000c0: a82e 05bd a27b 9ebc 4e1c b6bc 9bb2 08bb
000000d0: c310 e73c f5d7 9b3b c428 173d cbd0 de3c
000000e0: cf60 bd3b 344a fb3b f84a 443b 0e6e 3d3b
000000f0: ec29 05bd d554 0b3d 7cb5 f23c 9124 b03b
-0.0212587 -0.02483091 0.018215781 0.037237957 0.02545004 -0.02000107 0.018623557 -0.022347618
-0.025288576 0.017935935 0.033106055 0.024203867 0.032013714 -0.004868402 -0.017776895 -0.0016596481
0.02056359 0.0009145879 -0.0028935461 -0.0008798668 -0.0036158112 -0.0031517337 0.028093753 0.011130792
0.03910958 0.0040761367 0.030221784 -0.009814999 0.016970871 0.011301234 -0.002563137 0.013678291
0.015370176 0.00031670937 -0.014498863 -0.010604273 0.01818152 -0.013440117 0.035486005 -0.028993165
-0.0019908762 0.011420597 0.008382992 -0.02607821 0.024132147 -0.02852921 0.013699606 0.023526318
-0.032515198 -0.019346062 -0.022230294 -0.002085841 0.028206235 0.0047559687 0.03690411 0.02719917
0.0057793627 0.007668758 0.0029951911 0.002890471 -0.032510683 0.03401645 0.029627554 0.005375453

weight f4 [128, 64]
00000000: 3800 eebd 3636 523a 8bab 233e cba5 183e
00000010: 2f95 0abe 7071 693d 814a debd 168c 02bd
00000020: 1412 6cbb 9ccc 8fbc 5acf 123e fee4 8338
00000030: 7e6b 7e3d f345 0cbe 38c9 883d a600 dbbc
00000040: 7e19 92bd 1023 1b3d fde8 493e a56d de3c
00000050: f6ee 503d e58c abbd d285 863b f9dc 86bd
00000060: c935 b9bd a3a3 23be 3867 5fbc f18e a7bd
00000070: a832 083d 86b3 d33c 0e00 68bd 54d8 7f3d
00000080: a39b ecbd b1b9 b0bd e6d4 4fbd 0c33 0d3e
00000090: dfa7 25be 91a0 0cbe 401a 29bd 0140 b7bd
000000a0: 3686 393d 7473 d73d 85ad e03d 9810 183e
000000b0: 657f 783c 3f4f 48bd e8fe 5f3d 67a5 b4bd
000000c0: a6dd cbbd 4fd2 153d 3af0 36be 8197 9fbd
000000d0: 0074 953d 0e4f 3d3c ade5 0f3c 4e3b 86bd
000000e0: a529 2ebe 55df c93d 99e9 503d 2bf4 cb3d
000000f0: b83f 083e 82ab 55bb 9acf 8c3b 3e12 ef3d
00000100: 84d9 4abd e785 69bb 61a0 0ebd 6fe7 563d
00000110: 6345 0d3e 2751 4d3c bbfd 263c 4e59 273b
00000120: 9b65 0b3e b012 c83d 76eb 9c3d 9ff1 9fbc
00000130: 20ef 36bd 8f44 053e 73b5 fb3d 0e36 ccbc
00000140: e56e 05bd edd6 84bc da2e e13d 6c4a 42bd
00000150: 45f0 63bd 658b ddbd 95ea dd3b 1028 b03c
00000160: 6508 1c3d c48f 363e 0628 efbd c4a5 2cbd
00000170: 2fa8 003e 22b4 dbbb aec7 5b3d 6cb8 82bd
00000180: a579 73bc 56eb d6bd 7f21 cabc 4c02 a03d
00000190: c7c5 8cbc 2b5a 9e3d 00ac 9a3d 1a34 c13d
000001a0: 954c 233e b361 843d 9c5f a63c a074 a83d
000001b0: 9cb0 d43d ec3c 7f3d 2e82 cdbd 9fe2 bf3d
000001c0: a5b6 8cbd 589e 293e aeeb 83bd 0dae 04be
000001d0: a0ba 9fbd 4feb 8dbd 998b bc3c ab13 ac3c
000001e0: 30b3 0cbe 1dc7 41bd 2ed7 133d 0d08 f13a
000001f0: c73e f2bd 53c7 b3bd 288c e53d cd1c ce3d
00000200: 63d9 813c 8450 90bc 22e8 cdbc 1d58 de3d
00000210: ce4d ecbc 29dc 76bd 620c 3bbd f4d0 dabc
00000220: 26cb f5bd 64c7 62bd dcc4 84bd 3f79 b93d
00000230: d61f d5bd 0753 a8bd 6f02 513c fa8d db3d
00000240: ed6c dabd 98ab c5bd 2be6 dabd 627b 1b3e
00000250: 11cf d9bd bad8 b4bd 931b a03d ac05 9c3c
00000260: 0ae4 303e 6727 76be 4b0c a93d 6984 473d
00000270: 44a0 52be ba01 57bc fb27 3fbd 278b d63d
00000280: 7f3d 26bd 329b 1c3e 1f6f bebd 0c7a b4bd
00000290: 4ef4 9e3d b7bb f3bd 928e bcbc e95b 533d
000002a0: dc6b 993d f3af 30bc 03e2 fd3c ec0f a83d
000002b0: e023 54bd 15ad 1c3d 762a 4ebc b8d3 193e
000002c0: 686b e93d f631 943c 0ae1 ecbd addd 4d3d
000002d0: 881a 9cbd a51a ec3d 1a1b 93bb 0687 77bd
000002e0: 2eeb 003e 911a 1d3e de6c dfbd 87d4 e4bd
000002f0: 8d6f 123e d0d6 603d 8d9d 14bb 1ed9 49bd
00000300: 1bf5 2b3c ac99 85bc 9169 ccbb af0e d63d
00000310: b072 a23a 3d02 043e 13a5 8abd aafb d03d
00000320: 8cac 9cbd 8068 993c fcbf 863d da04 b9bd
00000330: 459c c0bd d581 90bd c986 ac3d 5e39 91bd
00000340: 923c 05bd 209c dabd c728 adbc e795 bcbd
00000350: 0483 c0bc 1df1 a3bd 4b86 7fbd 3df0 263d
00000360: 9f3c b73d f3b2 10be 56fe 79bd 6711 85bc
00000370: 7c15 48bd 9820 5d3c cc5a e2bd c074 393d
00000380: dc59 423d a392 b3bd 130a eb3d a35e 583d
00000390: ca57 6cbc 86df d9bd 436d e8bd b4d3 053e
000003a0: 33b7 3bbd 981d 903d fc8b abbd d433 97bd
000003b0: e166 a8bd babf 98bd 7961 a53d 313c c73b
000003c0: fa4a b8bd 083e c13d fd03 0b3e 8c1e cc3d
000003d0: 2881 0bbd 671c 67bc 6d6e 47bd a69f dc3d
000003e0: d81c 0a3e e4a9 553c 3bda f73d 12e1 cd3d
000003f0: 298f 47bd 0cba 82bd f0cc 673c 0aa5 8dbc
-0.116211355 0.00080189423 0.15983407 0.14906995 -0.13533472 0.056992948 -0.10854054 -0.031871878
-0.0036021518 -0.01755362 0.14336911 6.28922e-05 0.06211423 -0.13698559 0.066790044 -0.026733708
-0.071337685 0.037875235 0.19717784 0.027151892 0.05100914 -0.08376483 0.004105308 -0.06585116
-0.09043462 -0.15980391 -0.013635449 -0.08181561 0.033251435 0.02584244 -0.056640677 0.062462166
-0.11553123 -0.08629168 -0.050740145 0.13789004 -0.16177319 -0.13733126 -0.0412848 -0.08947755
0.04529401 0.10520068 0.10970596 0.1485008 0.015167092 -0.0489037 0.054686457 -0.088206105
-0.099543855 0.03657752 -0.17865077 -0.07792569 0.07297516 0.011554493 0.008782786 -0.0655428
-0.17008074 0.0985705 0.051004026 0.09958681 0.13305557 -0.0032603447 0.004297209 0.11673401
-0.049523845 -0.003563279 -0.034820918 0.052466806 0.13796 0.012531555 0.01019233 0.0025535407
0.13612978 0.09769189 0.07662098 -0.019524394 -0.04466164 0.13014434 0.12290468 -0.024928119
-0.03257646 -0.016215766 0.10995264 -0.047434255 -0.05564906 -0.10817603 0.006772349 0.021503478
0.038093943 0.1782828 -0.11677556 -0.042150274 0.12564157 -0.006704823 0.053657226 -0.06382832
-0.014860545 -0.104941055 -0.024674175 0.07812938 -0.017184151 0.07732042 0.07552338 0.09433766
0.15947182 0.06463947 0.020309262 0.082253695 0.10385248 0.06231396 -0.100345954 0.093693964
-0.06870774 0.1656431 -0.06441437 -0.1295702 -0.07799268 -0.06929647 0.023015784 0.021005472
-0.1374023 -0.04730903 0.036093883 0.001838924 -0.1182838 -0.087782525 0.11208373 0.10064087
0.015850728 -0.017616518 -0.025135104 0.1085665 -0.028845694 -0.060268555 -0.045666106 -0.026710965
-0.12001638 -0.055365935 -0.064828604 0.09056329 -0.10406463 -0.08218961 0.012756928 0.10720439
-0.10665307 -0.096518695 -0.10688432 0.15183786 -0.10635198 -0.088304 0.07817759 0.019045673
0.1727449 -0.24038468 0.08254298 0.04871026 -0.20568949 -0.01312297 -0.046668988 0.1047576
-0.04058599 0.15293577 -0.092985384 -0.08812341 0.07761441 -0.11901038 -0.023017202 0.051601324
0.07491276 -0.010784137 0.03099156 0.08206162 -0.051792026 0.038251 -0.012583366 0.1502217
0.11397439 0.01809023 -0.1156636 0.050260235 -0.07622248 0.115285195 -0.0044893147 -0.060431503
0.12589714 0.15342166 -0.10909437 -0.11173349 0.14300366 0.05489236 -0.0022676915 -0.049279325
0.010495449 -0.016308628 -0.0062381704 0.104520194 0.0012393799 0.12891479 -0.06769767 0.10204251
-0.07650098 0.018726587 0.06579587 -0.090341285 -0.09404806 -0.070560135 0.08424146 -0.0709102
-0.032528467 -0.1067431 -0.021137608 -0.09208279 -0.023499973 -0.08004973 -0.06238393 0.040756453
0.089471094 -0.14130764 -0.06103357 -0.01624365 -0.048848614 0.0134965405 -0.110524744 0.045277357
0.047448978 -0.08768203 0.11476531 0.052824628 -0.014425227 -0.10638337 -0.11348965 0.1306904
-0.04582901 0.070368946 -0.08376309 -0.07382932 -0.082227476 -0.07458444 0.08075232 0.0060801734
-0.08998676 0.0943566 0.1357574 0.09966764 -0.03405872 -0.014105893 -0.048689295 0.10772638
0.13487566 0.013040993 0.12102171 0.100526944 -0.048720513 -0.06383142 0.014147982 -0.01729061

bias f4 [128]
00000000: 291f b53d b4be c3bd 5c94 e93d e815 0438
00000010: 3d82 c83d bade 48bd 4412 b03d 307c 0c3e
00000020: 5c03 c63d b4d1 f6bd 7ea6 e1bd 199a ec3d
00000030: 17b6 603d 5417 d9bc c081 f9bd 816f cf3d
00000040: 5cc6 be3d f365 87bd 5654 9e3d 5c13 29bd
00000050: 7298 cabc 1974 3f3c 5924 e23d 2a1a 8e3d
00000060: 48b0 903c fd82 6cbc 4f63 0e3d 63b4 71bd
00000070: 544d 29bd 59da e53d d174 433d 28b0 4bbd
00000080: 0a3a 873d 05b4 423d b306 4fbd 9b9c 9f3d
00000090: c5ad 5d3d dee8 293b 1a0e dd3d 729f 9cbd
000000a0: 0476 7b3c 244d efbd afe9 eabd 584e 4b3d
000000b0: 2270 d33d 2e76 863d ac67 163d c4fb 973c
000000c0: 6439 a93d b4e1 653c 1537 9dbd 0541 60bd
000000d0: 6383 47bc 0f9c 8fbd d7cd a03d 944f 373c
000000e0: 2fd1 023e 6298 cabd 73ac 1f3d b153 f8bc
000000f0: 4a97 c33c 4b73 26bb ced5 d1bb 848e 51bd
00000100: 0152 a1bd 4c52 a9bc b88f 163c 72a2 b6bc
00000110: 0204 fd3c 729a d4bd 62c9 e83d 68b3 55bd
00000120: 65da 98bd cd77 65bd f9ac 5b3d 73b1 babc
00000130: 468c a53d 5145 73bd 7778 fd3d 5efb 82bc
00000140: eecb 9dbd 6edd b8bc 0c40 6fbd 74e6 acbd
00000150: 8268 a5bd 5e27 96bd aaea 8abd d4f0 c9bd
00000160: df41 7c3d fe69 733d 1a4e 9a3d e7b0 51bc
00000170: 2aba e8bc 22f7 8dbd 6ab2 e73d 57ff b13d
00000180: 87eb f03d c520 c63d 2dc8 fcbb 5dee c7bd
00000190: a470 babc fd8f 983d 3843 60bb 8c19 a93d
000001a0: 5651 463c 7769 053d 8b75 61bd ff43 153d
000001b0: 2724 c53d e813 eb3d 50b5 7cbd d654 4b3d
000001c0: 03af ecbc 11ef 8e3d 1069 a03d 415b 9c3d
000001d0: 31fd 34bc 7679 88bd be2c ce3d c80c ab3d
000001e0: ea21 22bd 0313 b13d dea6 853c 89a8 143e
000001f0: 8b70 f4bc 63e1 bb3d 6963 febc d343 cb3d
0.08843834 -0.09557858 0.114052504 3.1491654e-05 0.09790466 -0.049040534 0.08597234 0.13719249
0.096686095 -0.120517164 -0.11018084 0.11552829 0.054861154 -0.026500382 -0.12182951 0.101286896
0.09315178 -0.06611242 0.077309296 -0.04127823 -0.024730895 0.011685395 0.11042089 0.06938584
0.017662182 -0.014435527 0.034762677 -0.05900992 -0.04133351 0.11223287 0.047718827 -0.049728543
0.06602867 0.04753496 -0.0505435 0.07793542 0.054120798 0.0025926153 0.10793705 -0.07647599
0.015347961 -0.11684635 -0.11470353 0.04963526 0.10324122 0.0656551 0.036719963 0.018552668
0.082628995 0.014030863 -0.07676522 -0.054749507 -0.012177321 -0.07012188 0.07851761 0.0111884065
0.1277511 -0.09892346 0.03898282 -0.030313345 0.023875851 -0.002539831 -0.0064036613 -0.051161304
-0.07876969 -0.020669125 0.009189539 -0.022294257 0.0308857 -0.103810206 0.11366536 -0.05217305
-0.074635305 -0.056022454 0.053631756 -0.022789693 0.08083396 -0.059392277 0.123764925 -0.015989002
-0.07704912 -0.022566523 -0.05841069 -0.08442393 -0.08076574 -0.073317274 -0.0678304 -0.098603874
0.061586257 0.059427254 0.07534428 -0.012798524 -0.028409082 -0.069319025 0.11313327 0.0869128
0.11763673 0.09674219 -0.0077142925 -0.09762261 -0.02275879 0.074493386 -0.0034219753 0.08256826
0.012104353 0.032571282 -0.05504374 0.0364418 0.09626036 0.11478406 -0.06169635 0.049641453
-0.028892046 0.06979192 0.07832539 0.07634593 -0.011046694 -0.06663792 0.10067128 0.08352047
-0.039583124 0.08646204 0.01631492 0.14517416 -0.02983882 0.091738485 -0.031053262 0.09925046

weight f4 [256, 128]
00000000: b6bc c13c 4b53 8eba 2033 293d 29b2 acbd
00000010: e337 97bd a96d d93d de3c afbd d9ce 4cbc
00000020: 191a 7dbb 3a10 6d3d d572 84bd e422 233d
00000030: 190e 403d bb55 8a3d d538 3fbc 9ad8 833d
00000040: 3056 683b 2205 a0bd 0931 5a3d c54b 193d
00000050: 6357 b1bd 433d 463c fe5e 883d e29c 37bd
00000060: 42ef 573c 4a09 20bc 3a16 82bd e72b d73d
00000070: 16b0 563d 3b3a f4bc c955 1bbd c29b fabc
00000080: 9b51 3ebd e5c4 19bc 3cc2 dfbc cb74 0dbc
00000090: 9a4e 94bc 21f8 743d 9780 b3bd ba67 26bd
000000a0: 2ab4 e4bd c93f cbbd d0b7 85bd cd13 3ebd
000000b0: a1e8 b8bd b8f0 f03d b6fe bf3d 945a c13c
000000c0: 7188 8dbb 3bf6 a9bd eb8b 163d 3d98 073c
000000d0: fa12 8bbd a5ac 55bd 25f3 6dbd cdd2 93bd
000000e0: bea9 16bc 82d0 a3bb 428f 9a3d a436 4fbd
000000f0: 6b00 6f3d 6b99 173d 7b28 813d c9f4 ea3b
00000100: 24ca a6bd 226a db3c c751 353c 6298 983d
00000110: 0444 523d 8f6e 9cbd cb1e 4e3d 172f 70bd
00000120: 955b 383d 5ba8 3f3d 6822 273d 2ac8 9c3d
00000130: 94c1 9fbd 02d6 b5bd 5a86 6dbd 347e 803d
00000140: 6b61 243d a9ed c63d c5da 953d 469f 383d
00000150: d813 12bd 9a48 a53c 9d85 c63d 9f53 913d
00000160: 21fa f43d 902b c23b d287 483c fe5b 9a3c
00000170: 3c24 883c 3210 cabc b44c 5cbd fcda 61bd
00000180: 323a 1dbd ac31 97bd b8d3 b0bd 2d32 94bd
00000190: cf33 a43c 7ad9 073c 686e f03c 629d 70bd
000001a0: c9aa bcbd 5100 f2bd e72f 193d 419f f0bd
000001b0: ffa1 183d 805c 46bd f8be 1cbc 5f99 b1bd
000001c0: 9da8 833b 9c09 583d 1901 3dbc f726 d33d
000001d0: 1bc8 71bd d774 95bc 1c44 17bd 7ac3 c5bd
000001e0: c4ef fabc bfd3 03bd 99d9 033d 70de a9bd
000001f0: c990 433d 4035 773c c73a 113c fa69 c33d
00000200: 89c2 d23c 358e 933d 849f 34bb 0318 303d
00000210: 72ee 3a3d 9f66 71bc 79c8 89ba a452 e03d
00000220: 4b77 58bd 6426 263d f100 b6bd ae73 1cbd
00000230: 4b06 9ebd 14b4 4d3d 79bf 00be 9225 a83c
00000240: 35dd 6c3d 3216 b23d c2e2 853d 0382 a83d
00000250: 9db4 93bd acb7 4bbd bcfc 0abd af8c 89bd
00000260: 3000 1b3d 7a5d fb3d 2501 debd 789c 393d
00000270: 3059 afbc 7298 bc3c 02b9 7ebd c501 ebbd
00000280: 75e5 03be 5451 043c a8b1 863c 5e19 71bd
00000290: 43ff 323e 3698 5fbd 07d8 313d a7c7 f33c
000002a0: 88ed 94bd 956a 40be 32de 773d 1174 e23c
000002b0: b36a cfbc 5e81 a03c c396 cabd 8e58 c83d
000002c0: 75d6 9dbc 54d0 00bd 1fa1 babd fd3c 113e
000002d0: 9500 76bd 705e 73bd 7555 833d cd6a 1bbc
000002e0: 1644 853d 2423 5b3d 9439 683d 3584 763c
000002f0: f812 0a3c d60a 453b 89d1 503d 4ee3 b33c
00000300: 22bf 9b3d 9a2e b53c 2385 b7bd 93f7 853d
00000310: 87cc 333d eaf0 643d 476f 12bd 9caa bd3d
00000320: 9785 1bbe 3574 5a3d 705d be3d 41a9 6b3d
00000330: 231e c03c 6991 53bd ac8f ca3d 93fa 76bb
00000340: 67d0 c13c 43ff bcbd 77f5 8e3c 1f36 f33c
00000350: 4458 11ba 94b8 95b7 2635 aebd b888 08be
00000360: e568 ebbc ae75 46bd 73f3 6a3a 4da2 0dbe
00000370: dc4c 593d fccd b0bc 8f70 9abc 0437 d83c
00000380: 8c0a a33d bda4 883c 1d94 193e 1e37 adbc
00000390: 78ac 573d ca9f 823d 0ef5 973c 06d9 ca3d
000003a0: eded 003e 814f 3ebd 1fe3 8cbd 894a 9abd
000003b0: d096 4dbd 0f91 8e3d 3816 70bd d730 f53d
000003c0: 0c00 85bc 42a8 9abd 26c0 dd3d 2a74 c13d
000003d0: 50e3 dc3c feb0 153e 23f0 e13c 01a7 843d
000003e0: 5a96 763d a05b abbd 0af2 5bbd 7fe2 eabb
000003f0: 2a91 8bbd 525b 243c 7a86 3abd 5d99 54bb
0.023649555 -0.0010858563 0.041308522 -0.08432419 -0.073837064 0.10616619 -0.08556531 -0.012500488
-0.0038620292 0.057876803 -0.06467215 0.039828196 0.046888445 0.06754633 -0.011671265 0.06437798
0.0035451762 -0.07813479 0.05326942 0.037425775 -0.08659246 0.012099567 0.06658743 -0.04482735
0.013179602 -0.00976784 -0.06351896 0.105064206 0.052414022 -0.029812923 -0.037923608 -0.03059185
-0.046464544 -0.009385322 -0.027314298 -0.008633803 -0.018103886 0.059806947 -0.08764761 -0.040626265
-0.11167176 -0.099242754 -0.065292 -0.046405602 -0.090287454 0.117646635 0.09374754 0.023602761
-0.0043192436 -0.08298918 0.03675453 0.0082760425 -0.06790729 -0.0521666 -0.05809321 -0.072179414
-0.009195743 -0.0049992213 0.075468555 -0.05058922 0.058350008 0.037011545 0.06306549 0.007170294
-0.08144024 0.026784007 0.0110668605 0.0745094 0.051334396 -0.07638275 0.050322335 -0.05863866
0.045009214 0.046791416 0.040804297 0.07655366 -0.07800594 -0.088787094 -0.057989456 0.06274071
0.040131968 0.09713299 0.073171176 0.04507377 -0.035663456 0.02017622 0.096934535 0.070960276
0.11961771 0.005925603 0.012239413 0.018842693 0.01661884 -0.024665926 -0.053784087 -0.05514048
-0.038385577 -0.07382521 -0.08634132 -0.07236133 0.020044236 0.008291597 0.02934952 -0.058743842
-0.09212262 -0.118164666 0.0373992 -0.11749125 0.037263867 -0.04842806 -0.009567015 -0.08671831
0.004017903 0.05274354 -0.011535906 0.10310166 -0.059028726 -0.01824419 -0.03693019 -0.09656425
-0.030631907 -0.03218436 0.03218994 -0.0829438 0.0477455 0.015088379 0.008864111 0.09541698
0.025727527 0.07204858 -0.00275609 0.04299165 0.045637555 -0.014733939 -0.0010512016 0.109532624
-0.05284814 0.040563956 -0.08886898 -0.03819626 -0.07716044 0.050220564 -0.12573041 0.020525727
0.057828147 0.0869564 0.06537391 0.08227923 -0.072121836 -0.04973571 -0.033932433 -0.067162864
0.037841976 0.122736886 -0.10840062 0.045315236 -0.021404833 0.02302191 -0.062188156 -0.11474947
-0.128805 0.008076031 0.016442135 -0.058862083 0.17480187 -0.05458852 0.04341891 0.029758288
-0.07271868 -0.18790658 0.060514636 0.027643235 -0.025319433 0.019592937 -0.09892037 0.097825155
-0.0192673 -0.031448677 -0.09112763 0.14183421 -0.06005915 -0.059416234 0.06412784 -0.0094859125
0.06507127 0.05350031 0.056695536 0.015046169 0.008427374 0.0030066273 0.05098108 0.021958973
0.07604815 0.022116948 -0.08960941 0.06541362 0.043896224 0.055893816 -0.035750654 0.09261057
-0.15187679 0.05333348 0.092951655 0.05753446 0.02345187 -0.051652346 0.098906845 -0.0037685975
0.023658944 -0.09228375 0.017451031 0.029688893 -0.00055444636 -1.7848135e-05 -0.08506231 -0.13333404
-0.028736541 -0.04845207 0.00089626684 -0.13831444 0.053051814 -0.021582596 -0.0188525 0.026393421
0.07960996 0.016680116 0.14997907 -0.021144446 0.052654713 0.063781336 0.018549468 0.09904675
0.12590761 -0.04646254 -0.068792574 -0.07533748 -0.050192654 0.069612615 -0.05861494 0.11972206
-0.016235374 -0.07551624 0.10827665 0.09445985 0.02696386 0.14618298 0.027580326 0.06477166
0.06020198 -0.083670855 -0.053697623 -0.0071681137 -0.06814797 0.010031538 -0.045538403 -0.0032440044

bias f4 [256]
00000000: ac4c 1bbd 1f88 9abc 2a03 8c3c a465 873d
00000010: 2ed6 3abc 73dc 94bd 352c 3cbd 7564 373d
00000020: 065d 1c3d 6504 8dbc dede 193d b5af 44bc
00000030: fecf 87bb b258 ec3b 277c 80bd c082 a83c
00000040: d0af 4d3d 1c68 b4bc baee 2dbd f39c 8ebd
00000050: bd5b 9abd 0354 83bd 9bf4 a93d 8b6b 343d
00000060: a019 49bd 7c55 fabc 20e4 94bd b2f6 4e3d
00000070: b9ea 2f3c 23af 163c 7f4a 9f3d 8f35 663d
00000080: 889a 373d 7a5d a6bb 5717 2ebd 3813 27bd
00000090: 0d5c 853d 987c 613d c965 683d e38e b83d
000000a0: e046 89bc 0c52 16bd a85a 95bd 04ca 51bd
000000b0: 65b6 ad3d 6995 80bd d48b 8abc a536 07bd
000000c0: ae3b 8e3d 01ff 5dbd 891c 073d b4d2 48bd
000000d0: 2e02 9ab9 d97d 9e3d a4f6 8c3c e4a4 79bd
000000e0: c739 8c3d 44a0 343d 095f d9bc 03bf 553d
000000f0: 5e5e 643c 184e 583d 87fa 363d d3cd 55bc
00000100: 3eed 64bd 4423 a5bd 3da3 ae3d 380f 5fbd
00000110: bcb5 0dbc 7e30 853d 4272 6a3d fdde a03d
00000120: 4cb1 263d c0dc 173d 2529 09bd 3f41 0abd
00000130: 9ee9 9c3a b67a be3d 0e6e 993d b63e 843d
00000140: 8ed6 aabd 722d c93d f27c 5c3c 9ef1 70bd
00000150: 27e7 0f3c 2615 e03c df8c 7fbc 281f b83b
00000160: 8bb3 44bd 1bf5 113d d733 4d3d d0d6 88bd
00000170: b481 853d 616f 30bd 9b64 823b ac4c 8d3c
00000180: 8a29 44bd ee5d f63b 80c8 c13c 568a 0a3d
00000190: 0581 bbbd fa90 82bb 8f3c db3d 71b7 41bd
000001a0: a3a5 0f3d 8542 8bbc 130d 99bd 00fc 493d
000001b0: 4060 213c 1888 a5bd d2af e33b dae1 9b3d
000001c0: 185e 8bbb 0a6c 8c3d 8855 a73c d2b1 773c
000001d0: 75e9 5a3d 67cc 713d b858 353d 175e f73b
000001e0: 0c06 63bd aece 523d 2dff 9cbd 9187 8fbc
000001f0: c26c 5ebd 9797 cc3c 1c75 743d 3a23 9a3d
00000200: cd66 92bd 7466 63bd e8e9 04bd 7235 203d
00000210: 0938 fcbc 4399 77bd 6c56 fb3c 9c14 ac3d
00000220: f4f4 3fbc 0cc6 6bbc 6bfc 48bd f678 61bd
00000230: dd96 863d de1f fe3c c8fb 09b8 cc2d e73c
00000240: 687f 81bd ea88 353d b0fa 0abd c36f fa3c
00000250: 2ae3 5d3d 1060 d6bc 9a64 1bbd b8ca 9e3d
00000260: 37db 0e3d e388 923c e51c 0f3d 8837 513d
00000270: 41aa 223d 4e6b 59bd 7adc 39bc 8bb5 6cbc
00000280: 5500 a2bd 2cb6 173d cdbf b03d 4747 343d
00000290: 0f90 ccbc 1e56 92bb a46d f5bc bd91 21bd
000002a0: 537a 27bb c9b5 79bd 9922 6cbd f472 b13d
000002b0: f683 86bd 080c b8bc ebf6 903c d541 2b3b
000002c0: 71a0 963d 89ac c5bc 3668 2b3d 465c 1a3c
000002d0: 6a3b 9b3d 0181 423d b448 7d3d 76d5 b83d
000002e0: ad59 9e3d 33b3 6ebd ece3 943d 629d 443b
000002f0: 7feb bfbd cfda fa3c 650b bf3d d6f5 773d
00000300: 8ffb 6fbd 94b6 853d 83a6 c5bd 0152 dd3d
00000310: 340d 143d ef87 173c 5317 b03d 6db7 cebc
00000320: 1f71 91bd f775 38bd 61fd 173c 1680 793d
00000330: 48a6 6fbd f9a5 983d 34c9 4fbd b720 a93d
00000340: 58ec 7dbc 7bcb 71bd 1212 c93c 38ef a63d
00000350: 3a92 c33c 69f2 92bd 6a3c c73b 1f32 263c
00000360: c421 993d 728d 1c3d ad79 41bd 95d1 553d
00000370: 3065 ad3d f04c b83c aad9 113d e2bb 63bd
00000380: 0a32 323c 2a99 9fbd 13b7 ec3c c8fc 18bd
00000390: 9ac0 993d aeba 1a3c 6243 aabd 81f9 1ebc
000003a0: f55c 9738 bfb5 2c3d c1fe 31bd b931 113d
000003b0: a281 5dbc 99b0 b73d bcac 9bbc 6241 51bd
000003c0: 3ac9 6d3d 0b7e a63d 7273 6e3d 4e4c 07bc
000003d0: b69f bfbc 502b 04b7 d73a 953c dc5e 41bd
000003e0: 961b 903c 86d8 f23c f760 363d c466 983a
000003f0: e751 8f3d 9301 2abc 8ca5 3fbd 5b31 33bd
-0.037914917 -0.018863736 0.017091352 0.06611183 -0.0114036035 -0.0726861 -0.045940597 0.044773538
0.03817465 -0.01721401 0.03756606 -0.012004782 -0.0041446676 0.0072127217 -0.0627368 0.020570159
0.050216496 -0.0220223 -0.042463996 -0.069635294 -0.07537029 -0.06412508 0.08298608 0.044047873
-0.049096704 -0.03055834 -0.07270074 0.050528236 0.010737115 0.009197029 0.07777881 0.05620342
0.044825107 -0.0050770612 -0.042502727 -0.040789813 0.06511698 0.055050462 0.056737695 0.090116285
-0.016757429 -0.03669934 -0.07292682 -0.051218048 0.084820546 -0.06278498 -0.016912378 -0.033011097
0.06944977 -0.05419827 0.032986198 -0.049029067 -0.00029374793 0.07738847 0.017207451 -0.060948268
0.06846958 0.044098154 -0.026534574 0.052184116 0.0139385145 0.05280885 0.044672515 -0.013049561
-0.055890314 -0.08063367 0.08527229 -0.054457873 -0.008649286 0.0650339 0.05723787 0.07855032
0.040696427 0.037075758 -0.033486504 -0.03375363 0.0011971479 0.09300749 0.074916944 0.06457274
-0.08341704 0.09823121 0.013457524 -0.058824174 0.008783138 0.027353834 -0.015597551 0.0056189485
-0.048022788 0.03563414 0.050098266 -0.06681597 0.065188795 -0.04307497 0.0039792783 0.017248474
-0.047891177 0.0075185215 0.023655176 0.033823334 -0.09155468 -0.0039845677 0.1070491 -0.047294084
0.035070073 -0.016999492 -0.07473197 0.04931259 0.009849608 -0.080825984 0.0069484496 0.07611437
-0.00425316 0.06856544 0.020426527 0.015118079 0.0534453 0.059032824 0.044274062 0.007549058
-0.05542569 0.051466636 -0.076658584 -0.017520698 -0.05430294 0.024974627 0.059681997 0.0752625
-0.07148514 -0.05551763 -0.032449633 0.03911347 -0.030788438 -0.060448896 0.030680858 0.084023684
-0.011716116 -0.01439048 -0.04906885 -0.055046998 0.06571744 0.031021055 -3.2897835e-05 0.02822008
-0.06323129 0.044320025 -0.03393048 0.03057087 0.05417172 -0.026168853 -0.037937738 0.07753509
0.03487703 0.017887538 0.034939665 0.05107835 0.039713148 -0.05308085 -0.01134407 -0.01444758
-0.079102196 0.037038967 0.08630333 0.044013288 -0.024971036 -0.0044658324 -0.029959507 -0.039445627
-0.0025555089 -0.06096438 -0.057650182 0.08664504 -0.06568138 -0.022466674 0.017695865 0.0026131768
0.073548205 -0.024130123 0.04184743 0.009421414 0.07579692 0.04748631 0.061836913 0.090250894
0.07731948 -0.058276366 0.07270035 0.0030001034 -0.09371089 0.030621914 0.09328345 0.06053718
-0.058589514 0.06528965 -0.096509 0.10806657 0.036145404 0.009248718 0.08598199 -0.025233949
-0.07101654 -0.045034375 0.009276719 0.060913168 -0.058508188 0.07453532 -0.05072899 0.08258193
-0.015498243 -0.059031945 0.02454475 0.08151096 0.023873437 -0.07175142 0.0060802 0.010143786
0.074771434 0.03822083 -0.04723518 0.052201826 0.084665656 0.022497624 0.03560797 -0.0555991
0.010876188 -0.077928856 0.02889589 -0.037350446 0.07507439 0.009443922 -0.083136335 -0.009703041
7.217556e-05 0.042165514 -0.043455843 0.03544781 -0.013519676 0.0896923 -0.019003265 -0.051087745
0.058053233 0.081295095 0.058215566 -0.008257939 -0.023391586 -7.877898e-06 0.018216534 -0.047209606
0.017591279 0.029644262 0.044526067 0.0011627306 0.069980435 -0.010376352 -0.046788737 -0.04374824

weight f4 [10, 256]
00000000: 01e4 563d a23b 813d c732 c93d e9c4 ffbc
00000010: 0480 14be c8dc a9bd b903 c43c 116c 583d
00000020: 35d7 85bd 9865 55bb 835c 16bd 3ab4 d0bd
00000030: 713e b93d be02 633d 2c6e 75bd 6a7f bf3c
00000040: 7756 58bd eca8 8fbd 92a7 c5bc c247 5fbd
00000050: fcb9 ecbd 9c0a 2a3b 15c4 1abd 9ccb 26bd
00000060: 3596 a5bc 5b06 8dbd 3aad 02be 144b b43d
00000070: 556d c5bb 31c4 bebd ec6f db3c 0357 173d
00000080: 3a3f 28be 8e0f 153d 52cc 21be f1ee 613d
00000090: 22f8 a3bd 4618 d0bd 1ba7 4b3d b789 17be
000000a0: 3a1a 14be 8947 50bd 7b19 883c da61 9abc
000000b0: a2b3 cfbd 00a3 d5bd d6a8 ddbc b11b 14be
000000c0: 625c 0a3d e0d3 43bd a038 33bd 0456 1cbe
000000d0: 8a0d 993a af02 0bbe b77d 203d db66 b13d
000000e0: 942a d5bd db8d 21bd d36c 5c3d 2015 c4bd
000000f0: b032 d8bd 6d2e 6e3b 478c 823b 4d67 ae3d
00000100: a4d7 bfbc 8d08 edbc 436c ecbc 5f7a a63d
00000110: 4acb 16be 5071 c33d 1946 ff3c 0d3d 07bd
00000120: d657 803d b831 f83a 0014 16bd ab91 3bbc
00000130: 12f3 373d 546d 2ebd d6b8 ddbc 5d7a 8a3d
00000140: a975 9f3d a11d b33c dab5 afbc 077f 40be
00000150: 7af4 683d 950c b9bc ef55 293d ff53 46bd
00000160: 0dc2 433d ffc5 1fbe 1590 dabb d03c dbbc
00000170: 271d 2cbe c95e a33d 586f 593d 90d2 42bd
00000180: 228a a8bd 68e9 84bd e23a 423d 1e3f 11be
00000190: 4aad c43b f346 94bd 9b11 b8bb 55a2 973c
000001a0: e6f1 333d f758 633d 33aa ddbd 9c1c 1abe
000001b0: 62a5 4d3d d33f 69bd 07eb 96be 300f 34be
000001c0: dbba 88bc e2d7 1c3d ef84 da3d 6778 9bbd
000001d0: 4777 25bd 8ddd 783d f91f acbd 7ac8 a53d
000001e0: f631 33bd 166c eabc d78f 003d 79f0 40bd
000001f0: 7016 aa3b bab0 d63c a136 22be 58c2 19be
00000200: 1fa7 12bf f53c 873d 3f07 7f3c a1b0 b03a
00000210: f05e 4abe 3d80 41bc acc7 043d c379 b2bd
00000220: faab 88bd 1653 7cbd 34a3 db3c b71a 9dbd
00000230: 6c59 c23d 962f d2bd ed98 d03c a73a a43d
00000240: 25b7 1cbe 3677 38be 5d36 2bbc ac51 883c
00000250: a86a 813d 25e3 733d ae97 a43d 7cb5 47bd
00000260: 9b47 86bd 6f34 1bbd e280 8e3d 8bd5 84bd
00000270: b21b 5fbd 5250 9fbc 15ff 35be 8857 ad3c
00000280: 0002 ff3c 243f bbbc eaae 943d 2ee2 5a3d
00000290: f6ca 9b3d b663 67bc 3ee5 043d 5f57 453d
000002a0: f83f b23c 4955 49bd 50ec 373d cc53 88bd
000002b0: 4031 7f3d 98a4 54bd 922d 8dbc 4e22 a83b
000002c0: f420 b33d 3860 69bd d47f c93d 4e09 cabd
000002d0: 98a0 14be de89 10be f8d8 3d3d c1a6 c63c
000002e0: 0b6d 313c 01e6 71bd be92 82bd b314 693d
000002f0: 41e8 7fbd d891 1bbe 8172 e7bd c618 353d
00000300: 9e85 c9bc b20f 99bc cd1d 14be e1b0 883d
00000310: 01cd 0bbe eb20 803d c535 6fbd 2c33 843c
00000320: 0c24 3dbd 27c2 2ebc 8232 9b3a 2580 8f3d
00000330: f9d0 f43c 385c 003d 7d5e 10bd fdfd 893d
00000340: 610e c8bd b20f 8dbc 00f2 893c 0f65 29be
00000350: a711 8ebc 1ad4 713d 3715 dabd d4ca e5bd
00000360: 5ee5 4e3d e104 e6bd a524 9e3d ca18 aa3d
00000370: 5f32 763d 2832 6dbc 24e3 0e3d 3f3d ab3d
00000380: 96a5 c7bd 2c27 02be 0d56 0dbd 34d9 0bbd
00000390: 1319 b2bd 2b6c b6bd 4d03 41bd 5092 463d
000003a0: 3c0e 89bd 5e1c eabb 79ab 25be 8467 e2bb
000003b0: bd8f 61bc fc01 473d 271a 5c3d c758 933a
000003c0: b0fe 653d f860 ccbd 7d7a ea3c 4563 b03d
000003d0: c859 b2bc 1a89 1dbe 058b 833c aecc 7dbd
000003e0: 5426 a4bd ced6 a93d a26a 333c ab79 1fbe
000003f0: 2dae 343c e2ee cebb 4464 3cbe 7b4f 9b3d
0.052463535 0.06310202 0.09824138 -0.031221824 -0.14501959 -0.08294064 0.023927556 0.052837435
-0.06535188 -0.0032561775 -0.03670932 -0.101906255 0.09045113 0.055422537 -0.05991952 0.023376185
-0.052816834 -0.07014641 -0.024127755 -0.054511793 -0.11558911 0.0025946265 -0.037784655 -0.04072152
-0.020213226 -0.06885978 -0.12761393 0.088033825 -0.0060249963 -0.09314764 0.026786767 0.036948215
-0.16430369 0.036391787 -0.15800598 0.055159513 -0.08006312 -0.1016088 0.04971991 -0.14798628
-0.1446313 -0.05084947 0.016613713 -0.018845487 -0.10141684 -0.104314804 -0.027058046 -0.14463688
0.03377951 -0.04780948 -0.043755174 -0.15267187 0.0011677009 -0.13575242 0.03918239 0.08662196
-0.10408512 -0.039441925 0.05381472 -0.09574342 -0.10556543 0.003634359 0.0039840075 0.08515797
-0.023418255 -0.028934741 -0.028860217 0.08128809 -0.14725986 0.09543097 0.031161355 -0.033017207
0.062667534 0.0018935716 -0.036640167 -0.011448304 0.044909544 -0.042584732 -0.027065676 0.0676162
0.07786114 0.021864714 -0.021449018 -0.18798457 0.056873776 -0.022589007 0.04134172 -0.04841995
0.047792483 -0.15602873 -0.006670008 -0.026762396 -0.16807996 0.07977063 0.0530847 -0.04756409
-0.08229472 -0.06489831 0.047419436 -0.14184234 0.006002103 -0.07240095 -0.005617333 0.018510023
0.043931864 0.055504765 -0.108234785 -0.15049976 0.05020655 -0.056945633 -0.29476187 -0.17583919
-0.016690662 0.03829182 0.10669886 -0.07591324 -0.040396955 0.060758162 -0.08404536 0.080948785
-0.04374882 -0.028615993 0.031387176 -0.047104333 0.005190663 0.026207317 -0.15841152 -0.15015543
-0.57286257 0.066034235 0.015565692 0.0013480374 -0.19762778 -0.01181036 0.032416984 -0.087146305
-0.06673427 -0.061602674 0.02681122 -0.07671111 0.09489712 -0.102629825 0.025463546 0.080189995
-0.15304239 -0.18014225 -0.010449973 0.016640507 0.06319171 0.059542794 0.08036743 -0.04875706
-0.065566264 -0.0378918 0.06958176 -0.064860426 -0.05446977 -0.01944748 -0.17773087 0.021159902
0.031128883 -0.022857256 0.07259925 0.053438358 0.07607071 -0.014122894 0.032445185 0.048179027
0.021759018 -0.0491536 0.0449031 -0.06656608 0.062302828 -0.05191478 -0.017233644 0.0051310426
0.0874652 -0.056976527 0.098388344 -0.09865056 -0.14514387 -0.14115092 0.046349496 0.024249436
0.0108292205 -0.05905724 -0.06375645 0.056904506 -0.062477354 -0.15192354 -0.11301137 0.04421308
-0.024599846 -0.018684242 -0.14464493 0.06674362 -0.13652422 0.062562786 -0.058400888 0.016137682
-0.046176955 -0.010666407 0.0011840614 0.070068635 0.029884802 0.031337947 -0.03524636 0.067378975
-0.097683676 -0.017219398 0.016839027 -0.16542457 -0.017342402 0.059040166 -0.10648578 -0.11220327
0.05051171 -0.11231399 0.07721833 0.083055094 0.06010663 -0.01447729 0.034884587 0.08361291
-0.0974838 -0.12710255 -0.034505893 -0.034142688 -0.08696189 -0.0890735 -0.04712229 0.04847938
-0.06692168 -0.007144495 -0.16178693 -0.0069093127 -0.01376718 0.048585877 0.05373588 0.0011241668
0.056151092 -0.09979433 0.02862286 0.08612684 -0.021771327 -0.15384331 0.0160575 -0.061962776
-0.08015123 0.08292924 0.010950716 -0.15573756 0.011027855 -0.006315098 -0.18397623 0.07583519

bias f4 [10]
00000000: 8ded 7bbd 0c9f 05bd 686f f6bc 3b4f da3b
00000010: 8c2c 11bd 6505 ea3c c29e e7bc a0b2 8cbd
00000020: 5c95 853b da5c 6c3d
-0.061505843 -0.032622382 -0.03008242 0.006662277 -0.035442874 0.028567025 -0.028273944 -0.068700075
0.004076643 0.057705738
