MNIST_model_CNN.pt (torch_old, 410691 bytes, 10 tensors)

conv1.weight f4 [16, 1, 3, 3]
00000000: 3fa9 853e 04ba 2b3c 89e4 033f 18a0 53be
00000010: 7df5 c23d af1f aebc 2427 67be 5e2a bfbd
00000020: 8606 edbe efa3 8cbd 94d4 b0be fd62 9a3d
00000030: 629e 8cbe 12cd b3be fce8 c5bd 2256 a9be
00000040: 0b61 073b 589f babd 0e58 9b3e 885e 313e
00000050: e7d3 8e3d f3eb dc3e 390e c23d 349e 8d3e
00000060: 1941 39be fb43 d83d 2717 a03e c994 5cbd
00000070: c05d 89be 4150 94be 0dfa dabe 9aaf ccbe
00000080: c0e5 eebd d2ed 69bd 136a 6a3e 3430 22be
00000090: ffd5 8a3e 96d8 933e 0cc7 b13e 3d88 803e
000000a0: f513 653d e48e b43e fd02 923b d7a5 1a3e
000000b0: ab33 513e 1853 1d3e 5f10 093e 4228 c9be
000000c0: 6b49 df3d 11d8 fb3e f754 843d 9150 bd3e
000000d0: df94 2f3e f642 2abd 6167 b9be a299 ef3d
000000e0: 7fd5 c1be d933 cbbe 190e 5fbd 6e98 e13c
000000f0: 9ffc d73d 3f7d 9fbe 963d 8e3d 0ae0 a8be
00000100: e1e4 e8be c15f 24be 6042 f4be 5d44 a8be
00000110: 0c2e b1be cfd3 3ebc 5dc5 efbe 96bf 8dbe
00000120: caa5 b63e d431 34be 1521 8cbe f313 853e
00000130: 1621 bb3e ca53 08be b584 c63e 7c6b 653e
00000140: 0680 04bf 1915 35be 9b3f 903d c5f7 373d
00000150: 7b5e babe e894 e1be 29bb e7be 9270 a9be
00000160: 54bd 2abe 1010 16be d681 36be 615c a4bc
00000170: 0b09 83be a7db 783e e36c cc3d 2881 593e
00000180: 4910 a5be 1670 f93e 4096 8c3e 09a7 c6be
00000190: 8b82 bebd 9204 9ebe 7e10 ddbe 4734 fdbe
000001a0: eb00 3ebe 7b54 d3be 239c 333e e4f8 afbe
000001b0: 10dc 303e 3d91 82be 79d2 67be c915 e5be
000001c0: d352 09bf 23dd 01bf 30d9 f6be 066d fabe
000001d0: e3c7 aabc 9136 93bd 77bd 903e d311 99be
000001e0: 6e6f 563e 0d97 85bd d7a0 58be da62 abbe
000001f0: a563 a3be 81d0 85bd 86bf afbe 6d3a 86be
00000200: 930b d2be f580 77be 7346 2abe b61b 07bf
00000210: 9436 623e 460e 45be bc3a b6be e11e 943e
00000220: 1dbe 0a3f 111c a3ba 75f3 e23e 55b4 aa3e
00000230: 0dea 893e a735 053e 7244 e53e f69f 7fbe
0.26105687 0.010481361 0.5152059 -0.2066654 0.095194794 -0.021255342 -0.22573525 -0.09334253
-0.4629404 -0.06867205 -0.34537184 0.07538412 -0.27464586 -0.35117394 -0.09663579 -0.33073527
0.0020657207 -0.09112424 0.30340618 0.17321217 0.06974011 0.43148765 0.09475369 0.27659762
-0.18091239 0.10559841 0.31267664 -0.05385283 -0.26829338 -0.2896748 -0.427689 -0.39977723
-0.11664915 -0.05711157 0.22892027 -0.158387 0.2711639 0.2887618 0.34722173 0.25103942
0.055927236 0.35265267 0.0044559226 0.15102325 0.20429866 0.15363729 0.13385151 -0.39288527
0.10902675 0.49188283 0.06461518 0.3697553 0.17146634 -0.041567765 -0.36211684 0.11699225
-0.37858197 -0.39687994 -0.054456804 0.027538504 0.105462305 -0.31150243 0.0694534 -0.32983428
-0.4548712 -0.16052152 -0.4770689 -0.32864657 -0.34605443 -0.011647179 -0.46830264 -0.2768523
0.35673362 -0.17597133 -0.2736899 0.25991783 0.3654868 -0.13313213 0.38773122 0.22404283
-0.5175785 -0.1768383 0.07043382 0.044914026 -0.36400208 -0.4405892 -0.4525998 -0.33093697
-0.16673785 -0.14654565 -0.17822966 -0.020063581 -0.25592837 0.2430254 0.09981706 0.21240675
-0.32238987 0.48718327 0.27458382 -0.38799313 -0.09302243 -0.30862862 -0.43176645 -0.49453947
-0.18555038 -0.4127539 0.1754003 -0.34369576 0.17271447 -0.25501433 -0.22638883 -0.44743183
-0.53642005 -0.5072805 -0.48212576 -0.48911303 -0.020847267 -0.07188142 0.2826955 -0.2989641
0.20940945 -0.06522951 -0.21155106 -0.33473855 -0.3191196 -0.065339096 -0.34325808 -0.2621645
-0.41024455 -0.24170287 -0.16628437 -0.5277666 0.22091132 -0.19243726 -0.35591686 0.2892981
0.5419634 -0.0012444278 0.44326368 0.33340707 0.2693638 0.13008748 0.44778782 -0.24963364

conv1.bias f4 [16]
00000000: 497b 06be 557c 0f3e b26d 913e 5f81 f0bd
00000010: 0cb7 f93d 7d00 053f bc64 333e a2c1 9e3e
00000020: 98c6 f63e 6b55 01bd 31a4 0f3f de1d f0bc
00000030: d97d b13e 4b8a c83e a52d b83e ed9f 3a3e
-0.13132967 0.14012273 0.28404003 -0.117434256 0.121931165 0.5195387 0.17518896 0.31007105
0.4819839 -0.0315756 0.5610991 -0.029311117 0.34666327 0.3916801 0.35972324 0.1822507

conv2.weight f4 [32, 16, 3, 3]
00000000: badc 9cbc 65ff b73d f6d9 683d 6dac 86bd
00000010: 4a10 0bbc d1df 6dbd e949 a8bd cf0f 77be
00000020: ccee a5be dd90 ce3b b171 15bd 7346 083d
00000030: 5c5a 28bd 1dcc 243c 83df 883d d089 13bd
00000040: b548 833d b6a8 083d d77a 763d f06a d93d
00000050: 9896 963d 95fb a739 bac7 fdbb c4ab 16be
00000060: 7743 353d 5295 8ebd 9e31 80bc 2357 59bd
00000070: 67db 1d3d fb70 013d ba82 3a3d 163f 7b3d
00000080: 191a f03d 4be7 693d 4a4a ca3c a3e8 e23d
00000090: 883a 073e 5f45 2e3e 82ee 213e 4d42 11bd
000000a0: fff9 973d ebd6 67bd a7ad e03d 63ec 793c
000000b0: 4e32 b43d 69cb 603d 9baf b33d 54fd 033d
000000c0: 2a52 c5bc 8a52 e9bd 2bd0 8ebd 1205 783c
000000d0: a588 01bd 9489 033d 4951 e9bb 7af2 12bd
000000e0: 8221 e3bc 7f1a 4ebd 69b0 18bd 11ef 003d
000000f0: 341c 56bd 9bae 1c3c ebf9 163d 568f f13b
00000100: c6f8 553d 870e 8ebd 2110 ca3c 6ed3 053e
00000110: 3179 663d 3d92 1d3d 682f 013e 12ce 643c
00000120: 363a b4bc fc2f 2a3d 3e41 86bd 584d 8dbd
00000130: 58d3 adbd d357 06be 1ea6 98bc 0dae 06be
00000140: 600a bcbc 8f48 c4bb 3637 963d 2323 b83d
00000150: 1389 89bc c90c 033d a942 6f3c c710 5a3d
00000160: 6382 cbbc f423 a8bc bf46 18bc ceaf f1bc
00000170: 0be5 a8bd fb36 e8bd 4f27 8ebe 4e6e debd
00000180: 0158 f33c e7d7 a1bd 8126 93bc 56d3 d5ba
00000190: d676 fcbc ade5 9abc 00bd c23d cb1b 623c
000001a0: 2a87 0e3d 6b77 6b3d b9cb 29bc fd5e cb3d
000001b0: e716 06bd 6edf 86bd cf27 5fbd 548a 1fbd
000001c0: d4c9 213d a081 f63d f62d 9cbd 4f7b de3d
000001d0: 5d52 b83d 4739 c1bc 8201 1ebd c79d e3bc
000001e0: d804 75bd 4398 25bc 4248 21bd e179 8d3c
000001f0: d0d8 b83c 88aa babd fba5 debc 2eb7 f53c
00000200: 0f35 f2bd 4945 9e3d 660a d33d 25d6 ad3d
00000210: a6be 7539 729e 15bd 8764 3d3d 9af4 523d
00000220: eb0c d73d 7b2c 273e 61f7 863c 5fcc f3bb
00000230: 31ca a0bd 56b6 fe3d 89ab 6b3c d327 b53d
00000240: 7497 bcbd fbe2 80be 1311 36be 627d 53bd
00000250: 781e 6dbe fe28 5cbe 511b 18be daab 84bd
00000260: 28bd 1dbd e2a8 9d3d 508e 613d 6b62 c53d
00000270: 01f9 2f3c 222f 16bd e3ee 5ebd 9f0e c43c
00000280: c5e8 dfba 35c5 17bd 145c 5d3d 8f3c e1bc
00000290: 0ca1 c03c e71a f0bc 50dd d63d 41ae 333d
000002a0: 2a85 873d b841 ce3d 3349 e93c a18b 01bc
000002b0: f14d 27bd 10eb 1c3c 7557 6abd 2175 593d
000002c0: 5c44 49bd 28fc afbc a9bc 63bd e408 9dbd
000002d0: 5302 983c b44b 9f3d 4ecf a83c 74fe f4bd
000002e0: 7bcd 0c3d 8743 ac3c 003a 54bd 3f23 2c3e
000002f0: c45c 79bd 3214 0f3d 193a d93d 6e6b bc3d
00000300: 1f5f 753d 37ce af3d c407 553c d3e5 7bbd
00000310: 1b34 ae3d 28e1 ac3d 4ed1 703d 2b69 6e3d
00000320: 566c 9cbc 40a1 3c3d a3fc 8d3d 2d81 733d
00000330: 24d3 85bb 10d5 adbd 6a9b 423d 668a a03d
00000340: 758e a43c e474 203c 17f4 373d 95cd cd3c
00000350: b2ed 1dbd 2619 0ebd a405 02be 3b06 c73c
00000360: 82b6 dd3d 8025 613d b106 a03d bea6 0a3e
00000370: adb7 10bd 8d2f c63d bbf5 d83d d1d6 0a3e
00000380: 4098 223e c94c 60bd a4c0 6abc ecbc 5f3d
00000390: df4f 153d e374 87bd ab4c d4bd 1ef4 923d
000003a0: 7090 bdbc 941d 09be 6290 cf3c 9622 643d
000003b0: 4e97 5bbd f556 bdbd 8d0b fa3d 0447 bb3d
000003c0: eb92 963d adab 493c c3a7 11bd 9633 d93c
000003d0: 0172 cb3c b79a ad3d ed2d 523d 60cc 3abd
000003e0: 42cb 8cbd 2ff8 bc3c ddcd 92bd a23a a9bd
000003f0: 503a 243b 67ce cd3d aa62 d7bc 3c92 933d
-0.01914822 0.089842595 0.05684849 -0.06575856 -0.00848777 -0.058074776 -0.08217222 -0.24127124
-0.3240875 0.00630389 -0.036485378 0.03327031 -0.0411018 0.01005843 0.066832565 -0.0360201
0.06410352 0.03336402 0.060175743 0.106161 0.07352942 0.00032040165 -0.0077447565 -0.14713961
0.044253793 -0.06962074 -0.01564866 -0.053061616 0.038539317 0.031601887 0.045534827 0.06133946
0.11723728 0.057105344 0.024693627 0.11079528 0.13205922 0.1701865 0.1581364 -0.03546362
0.0742073 -0.056601446 0.109706216 0.015254113 0.08798657 0.054881487 0.087737285 0.032224014
-0.02408703 -0.11392696 -0.06973299 0.015137928 -0.031624455 0.032113627 -0.0071202856 -0.035875775
-0.027725939 -0.050318237 -0.037277613 0.03147799 -0.05227299 0.009563114 0.036859434 0.0073718233
0.052239202 -0.069363646 0.024665894 0.13068935 0.05626792 0.03846954 0.1261574 0.013965147
-0.022000413 0.041549668 -0.06555413 -0.06899518 -0.08487576 -0.1311944 -0.018633898 -0.13152333
-0.022954166 -0.005990095 0.073347494 0.08991077 -0.016788995 0.031994615 0.014603295 0.053238656
-0.024842447 -0.020524956 -0.009294211 -0.029502776 -0.082468115 -0.11338612 -0.27764365 -0.10860883
0.02970505 -0.07902508 -0.017962696 -0.0016313593 -0.030818384 -0.018908346 0.09508705 0.013800572
0.03479687 0.057486933 -0.010363513 0.09930227 -0.032736685 -0.065855846 -0.054481324 -0.03895028
0.03949912 0.12036443 -0.07625954 0.10863363 0.090000845 -0.023586882 -0.038575657 -0.027785195
-0.059819072 -0.010107103 -0.03937555 0.01727003 0.022564322 -0.091145575 -0.027178755 0.029994573
-0.118265264 0.07728059 0.10304718 0.084881105 0.00023436043 -0.03652806 0.04623845 0.0515028
0.10500511 0.16325562 0.016475381 -0.0074401344 -0.07851065 0.124371216 0.014384159 0.088454865
-0.09208575 -0.25173172 -0.17779951 -0.051633246 -0.23156154 -0.21500012 -0.1485417 -0.064780906
-0.03851047 0.076982275 0.05506736 0.09637912 0.0107405195 -0.036666043 -0.05442704 0.023932753
-0.001708292 -0.037053306 0.05404289 -0.027494697 0.023514293 -0.029309703 0.10491431 0.043867353
0.06617196 0.100711286 0.028477287 -0.007906825 -0.040845815 0.009577528 -0.05721231 0.05309022
-0.04913746 -0.021482542 -0.055599842 -0.076677114 0.018555796 0.07778111 0.020606663 -0.119625956
0.03437565 0.021028293 -0.051813126 0.1681032 -0.060879484 0.03493137 0.106067844 0.09200178
0.059905168 0.08584254 0.01300234 -0.061498474 0.08506032 0.08441383 0.05879336 0.058205765
-0.019094627 0.046052217 0.06932952 0.059449363 -0.004084008 -0.08487904 0.047511496 0.078388974
0.02008746 0.009793494 0.044910517 0.025122443 -0.038556762 -0.034691952 -0.12697464 0.024294963
0.10825826 0.054967403 0.07813776 0.1354017 -0.035331417 0.09677038 0.10593744 0.13558508
0.15878391 -0.054760728 -0.014328156 0.05462353 0.036453124 -0.06614091 -0.10366186 0.07175468
-0.023140162 -0.1339019 0.025337402 0.055697046 -0.053611092 -0.09245101 0.122092344 0.091444045
0.07352241 0.012308997 -0.03556038 0.026513856 0.024834635 0.08476775 0.05131333 -0.045605063
-0.06874706 0.023067562 -0.071681716 -0.082631364 0.002505917 0.10049134 -0.026292164 0.07205626

conv2.bias f4 [32]
00000000: fc17 dabd 9538 073c 7e27 b1bb 8425 103e
00000010: e849 7abd 351c 4cbd a17b e5bc 904f b4bd
00000020: 644e c53d cd8f c23d 914b 123d c85e 4c3d
00000030: b348 42bc 6e8a ae3d ce52 89bc cdeb fe3c
00000040: 19ab 143d 74b6 a5bc 1994 d4bd 8c0f 05be
00000050: c76d 9bbc 6ad9 30ba 07cd e43d 378a 32bd
00000060: 0e99 eb3a b075 2f3d 533b c83d 1c2d b83d
00000070: 25a8 d9bd ad5d 51bb be39 c6bc 2217 453d
-0.10649106 0.008253236 -0.005406319 0.14076811 -0.06110564 -0.049831588 -0.028013052 -0.08804238
0.096340925 0.09500084 0.035716597 0.049895078 -0.011858153 0.08522497 -0.016763117 0.031118298
0.036295984 -0.020228602 -0.1037981 -0.12994212 -0.018973244 -0.00067462644 0.11171918 -0.043588843
0.0017974691 0.042836845 0.0977694 0.08992979 -0.10627774 -0.0031946704 -0.024197455 0.048117764

conv3.weight f4 [64, 32, 3, 3]
00000000: b6d2 91bb d33b a23c eb96 b2bc ab66 a73d
00000010: 1951 483b e894 213d 90bd 8bbd 69f2 84bd
00000020: 26df d3bc 59a6 f83c 6778 4e3d cb7f a6bb
00000030: b56b a8bd d059 a9bd a82d 8ebd 8510 ad3c
00000040: 8edb 433d 6b3a 07bd e45d 293d 75e0 47bd
00000050: 597c eb3c d0ed 32bc aad3 8abc b68a 7fbd
00000060: 3d6c 6cbd baa4 01bc 87bb e33a 882c 7d3d
00000070: ffec 9d3d a8f6 cfbb 49c6 40bd 7dce 72be
00000080: 7c33 0cbd ab97 993c 7760 963c 4c54 bfbc
00000090: 792a e4bc 9787 15bd 911f f3bc bff8 30ba
000000a0: 024a 3e3d b92d e5bc c0b6 1cbd a585 e3bc
000000b0: 6766 dc3c e321 cabc d198 283c 38c6 82bc
000000c0: 89c7 cdbc e6d6 29be 43e9 fabd 9adb 66bb
000000d0: 357c 333d 40fa e6bc 64f6 423d e168 9ebc
000000e0: b2dc d83c cc0f 04be 3b2c 8abd 3752 c3bd
000000f0: b6f4 573c 3aaf 4c3d 2066 b8bd de4d 2dbd
00000100: 1757 853d 3142 853d 9ef5 07bd 30ca 43bc
00000110: 7fc5 183d 2b3d 853d fef0 863d 3e67 853d
00000120: 5d9b 14bd 4327 53bb 9bfc adbb 4d9e 1abe
00000130: 37fb 07be 96a0 a2bd bc85 053b e613 3dbd
00000140: 7fa9 e5bc e3fc 3b3c c673 39bb e867 bdbc
00000150: 86bb bebc 3c35 79bc 751e eebc 161f 673d
00000160: acf7 113c 9e45 933c d099 773d 1920 9e3c
00000170: d922 9c3c cdff 07bd 1185 bcbd 937e 99bb
00000180: 0521 5c3d 42ee 0e3d 5688 a23c a046 a83c
00000190: a1a8 723d fa12 b13b e8d6 2dbc 64c7 043c
000001a0: 8d4c 053d 97ff c53d fea8 d0bc 9ecb 193d
000001b0: f438 803c d67c 1c3b 2218 d23c 4688 ac3b
000001c0: 1f7b 37bd 1e15 32bd 1698 abbc 0f3f fb3d
000001d0: 68ca d9ba b8b0 8c3d d4bc a83d 98e0 4f3c
000001e0: 3a40 a6bc a27b 3ebe 8fab 29bd 2928 973d
000001f0: 8736 9b3d 6ebe 913b 16e7 38bd fe99 07bd
00000200: e070 6a3d 0bde 2a3d bb47 843d a3b6 0fbd
00000210: ad26 e33c 461d 16bb 32f3 b93c d7f7 743d
00000220: 5c08 d33d 522d 8c3d 1d1a 67bc 902f 2fbe
00000230: 22c7 bcbd 1333 9f3d b73a 9b3d fc97 02bd
00000240: 2639 ed3c 28b2 053c d888 373d 0559 ab3c
00000250: 485d 25be b54e ed3c 8ce0 e23c 65c0 a63d
00000260: 7309 a33c c34c 8f3d f1bb 993d c6a5 99bc
00000270: bde9 bbbd 9e6f 56be 4b85 68bd a384 d73d
00000280: 01dd 9c3d 6d7c 293d 2cfb 383d daab 5abd
00000290: 975c 5ebd f8ff bbba 450d 733d 218e bd3d
000002a0: 7bdc 9cbc 150c 81bd f962 47bd 4b4e d23b
000002b0: 1723 d5bb 1b16 adbb 0177 08bd aa87 9c3d
000002c0: 6bc7 98bb 0699 f13b 7e2f 4abd 5b14 0a3d
000002d0: 1b16 4d3c a92e ed3c b81f 4e3d f009 843d
000002e0: afd6 fc3d 8739 ea3d af66 5f3d cfc8 223d
000002f0: ba19 2dbc 2d6a c8bc 3bc0 c7bc df8d 98bc
00000300: 2e52 803d 193c a8bc 3ce3 30bd 6584 ba3c
00000310: 902a bebb 0c9d cfbd 56de c1bb c9dd b93d
00000320: b8ce ecbb 7e18 08bd 8487 05be 5dc7 ebbc
00000330: 1e46 113d 934a fb3d e183 163d f9ec b9bc
00000340: 9a5b 013d 2bc4 693d 7896 27bc 1447 46bd
00000350: 4e24 72bd cf27 9a3d a8bb ab3d 64c3 113d
00000360: 1eea 363c a376 8e3d 6907 fc3c f420 76bd
00000370: 0c11 85bd 2897 98b8 08be a43d 5e08 a83d
00000380: fc4b 0f3b 70c8 383d 6932 ad3d ec36 543d
00000390: 69c3 26bd 4e8b 11be 82c7 c03c 6811 b43d
000003a0: 26e7 ef3d a9c9 ff3d 80db 883b 8a46 993c
000003b0: 41d4 8e3c 9a55 253c 3ece febc 4496 89bc
000003c0: 1dbd 833d 2028 febc 84c1 db3c ed2f e93c
000003d0: 33c2 c33d 0d81 c03d f745 653b aa97 2fbd
000003e0: 646a 823d 24d6 4c3d 607a cb3d dfe8 703d
000003f0: b420 29bd 96bf bfbc f610 ef3b ac19 353d
-0.0044501675 0.019803917 -0.021800479 0.08173879 0.0030565916 0.03944865 -0.068232656 -0.064915486
-0.025863241 0.030352758 0.050407793 -0.005081152 -0.082236685 -0.082690835 -0.06942302 0.021126041
0.047816806 -0.033014696 0.041349307 -0.048798043 0.028745817 -0.010920957 -0.016946632 -0.062388144
-0.05772041 -0.007912809 0.0017374613 0.061810046 0.07711219 -0.0063465424 -0.0470641 -0.23711582
-0.034228787 0.018749079 0.018356545 -0.023355626 -0.027852284 -0.03650626 -0.029678138 -0.0006750933
0.046457298 -0.027975904 -0.03826022 -0.027773688 0.026904298 -0.024674362 0.0102903405 -0.015963659
-0.02511956 -0.16585883 -0.122515224 -0.0035226108 0.043819625 -0.0281955 0.047598258 -0.01933712
0.026472423 -0.12896651 -0.067467175 -0.095371656 0.013180902 0.049971797 -0.09003854 -0.042310588
0.06510752 0.06506766 -0.033193223 -0.011950061 0.037297722 0.065058075 0.06588934 0.065138325
-0.03628098 -0.0032219447 -0.005309654 -0.1509945 -0.13279425 -0.079407856 0.0020373901 -0.046161555
-0.028034924 0.011473867 -0.0028297766 -0.023120835 -0.023282778 -0.015210446 -0.029067257 0.05642613
0.008909147 0.017977532 0.06044942 0.019302415 0.019059585 -0.033202935 -0.09205068 -0.0046842783
0.053742427 0.03489519 0.0198404 0.02054149 0.05924285 0.0054038735 -0.01061032 0.008104179
0.032543708 0.096678905 -0.025471207 0.0375477 0.015652157 0.002387812 0.025646273 0.0052652685
-0.04479515 -0.04347717 -0.020946544 0.12267887 -0.0016616108 0.06869644 0.08239141 0.012687825
-0.020294297 -0.1860185 -0.041423377 0.07380707 0.0757876 0.00444775 -0.045142256 -0.033105843
0.057236552 0.041715663 0.06458994 -0.035086285 0.027728403 -0.0022905632 0.022698972 0.05980667
0.10304329 0.06844582 -0.014105347 -0.17107987 -0.09217669 0.077734135 0.07579558 -0.031883225
0.028957915 0.008160152 0.04480824 0.020916471 -0.16148865 0.028968194 0.027694963 0.08142165
0.019901967 0.06997063 0.0750655 -0.018755805 -0.091754414 -0.20941016 -0.056767743 0.10523345
0.07659341 0.041378427 0.04516141 -0.053386547 -0.05428752 -0.0014343252 0.059338827 0.092556246
-0.019148102 -0.063011326 -0.048678372 0.0064180247 -0.006504427 -0.005282176 -0.033316616 0.07643063
-0.0046624443 0.007372978 -0.0493617 0.03371082 0.012517477 0.028952913 0.050323218 0.06447208
0.12345635 0.11436754 0.054541286 0.039742287 -0.010565216 -0.024464691 -0.024383655 -0.018622337
0.062656745 -0.02053647 -0.043185458 0.022768209 -0.0058034137 -0.10137376 -0.005916397 0.09075505
-0.007226791 -0.033226483 -0.13039976 -0.028781587 0.03546726 0.12270083 0.036746863 -0.022696005
0.0315815 0.057071846 -0.010228746 -0.04840763 -0.059116654 0.07527124 0.08385402 0.03558673
0.011164216 0.06956222 0.030765252 -0.06009002 -0.06497392 -7.27608e-05 0.08044058 0.08204721
0.0021865359 0.045113027 0.084568806 0.05181019 -0.0407137 -0.14213297 0.023532633 0.087923825
0.1171401 0.124896355 0.004176557 0.018710393 0.017435195 0.01009121 -0.031104203 -0.016795285
0.06432555 -0.031024992 0.026825674 0.028465236 0.09558525 0.093996145 0.003498433 -0.042869247
0.06367949 0.050008908 0.099354506 0.058815833 -0.041290954 -0.023406785 0.007295723 0.044213936

conv3.bias f4 [64]
00000000: 841e 553b e4a1 793c 2a81 d5bc f40f d3bc
00000010: 14da c63c dfe2 f23c 1ffe 5bbd dc4d 2fba
00000020: 7e8b 34bd c7e4 0cbd 0dd7 023c f4bf 95bc
00000030: 2c99 5a3c 0948 353d 5ebc 5cbd 57de 0b3c
00000040: 17bb 7ebc 6da0 2abd 31da 84bc f52b 14bd
00000050: 6647 1dbd 215d 4dbd 400c 673a da0d 883d
00000060: 7a5c e0bc 3b95 e0bc a02c 19bd e9cf 283d
00000070: a918 03bd 4f81 80bd a6d8 613c f43d 8c3d
00000080: 8e06 a3bc 4b98 a1bd dbc0 32bd 2e37 913b
00000090: d8f8 d8bc 67a3 f43c 8aad 7cbd 8d7c 133c
000000a0: fe5e a93b e749 7fbd e3f4 0b3d 5579 78bd
000000b0: 9285 61bd a361 1a3d 1c3d 2e3c a9dd 673c
000000c0: ed5b 28bd 0435 8abc 1b92 b0bc 0613 0b3c
000000d0: 3f9d 0ebd 6b6b 9dbc ed76 fcbc 0bfa 4a3d
000000e0: 26ee 38bd 4563 e43c 8d87 9f3c 42e9 db3c
000000f0: 74fc 53bc ea49 81bd b8d4 333d 9f72 0f3d
0.003251941 0.015236352 -0.026062567 -0.025764443 0.02427391 0.029649196 -0.053709146 -0.0006687322
-0.044078343 -0.034397867 0.007985842 -0.018280007 0.013342183 0.04425815 -0.05389058 0.008536897
-0.015547535 -0.0416569 -0.016217323 -0.036174733 -0.03839817 -0.050137643 0.0008813776 0.06643267
-0.027387846 -0.027414909 -0.037396073 0.041213904 -0.03200594 -0.06274664 0.013784563 0.06847754
-0.019900586 -0.07890376 -0.043640953 0.0044316268 -0.026485845 0.029863073 -0.061688937 0.009001863
0.0051687947 -0.06232634 0.03416909 -0.060662586 -0.055059023 0.03769077 0.010634687 0.014151969
-0.041103292 -0.016870983 -0.021554044 0.008488422 -0.03481793 -0.01921626 -0.030818427 0.049554866
-0.04514899 0.027879367 0.019473815 0.026844624 -0.0129386075 -0.06312926 0.043904036 0.03502142

conv4.weight f4 [128, 64, 3, 3]
00000000: f5c1 95bd 6839 3c3d 3de7 3f3d eda6 893d
00000010: 8a61 b1bc f020 e23c 77f7 faba ec05 da3d
00000020: fd5d a13d e274 d4bc 49bd 9f3c e069 38bd
00000030: b8f8 213d bc2b 15bc a551 b93d 2114 73bd
00000040: 99f0 943c ebde fd3c 0571 ee3b ca95 e8bc
00000050: a44c 3c3d 8eb7 2abc f74d dbbc 46d6 82bd
00000060: 7b1d a03c ac61 b5bc b923 bb3c 9977 1d3c
00000070: 60b6 1ebc baba 8f3d 4d37 043d 3799 b33c
00000080: 636c 1fbc 4db5 58bd c5f4 8fbc d709 a3bd
00000090: 5d37 b9bc 67b3 83bc 8c80 02bd 76ba 623d
000000a0: 7453 013d 0d66 1b3d 5003 b9bc 5e62 21bd
000000b0: 74d9 083d e926 d9ba 0f18 353c e65f 833c
000000c0: 23cd 123c 0b5f e83c 96f3 28bd 45a3 74bc
000000d0: 0ccd e23c 73be c1bc 6725 bebc a08d 21bd
000000e0: 018c 833c 34ec 433c c8f7 1dbd 25a7 803d
000000f0: 308e 8b3c a494 c6bc ecaa 4dba ba47 b83c
00000100: e99b 87bb 6e25 843c 1979 50bd 2b4f d43c
00000110: 03cc b6bc d5de 9a3c 8360 9d3c 0709 d5bc
00000120: a5d0 a8bc dd77 913b a76b acbc 2790 53bc
00000130: 15db 5dbd e13f be3c a45c 2c3d 5c11 b4bc
00000140: 7bfc 193d 5657 ce3a 4a8b 6b3c d6f1 b1bc
00000150: 66a1 3d3b 3767 923d ad5c 3cbd a9d2 4b3c
00000160: 486a ac3c 4223 77bd 6c57 8dbb a64d cd3c
00000170: 7d0a b0bd afd6 9e3c d731 13bd b309 f6bc
00000180: 4200 8b3c abd3 7cbd e54e c5ba 293d ccbc
00000190: 5b98 c33c 6119 cebb 14ba 05bc eefe e43b
000001a0: 116d 323c 0935 583b 48f5 04bd 5ae1 363c
000001b0: 76e2 aa3c 7fbc 50bd d4e6 8c3d 5ede f53c
000001c0: 986b 15bc e08a a2bc 92b3 49bd be37 d2ba
000001d0: c83a 273d 5d73 653c 3b70 fc3c 1939 503d
000001e0: 8388 f43c f105 d33b 3208 d9bc 684d aabc
000001f0: 8930 75bd 0270 b8bd 9fb2 eebc 684c 8a3c
00000200: f345 96bb b3fc 59bd 75c1 86bc 406d 853c
00000210: ac72 e43c 026b 37bc 6dfa 0d3c 5548 01bd
00000220: a4cb 243c dd1f 9a3a 58e5 bebc 62b1 a2bc
00000230: 08d6 4bbd 175c 083d 694a 1abd 3fd1 12bc
00000240: f89c 4abd 62de 8c3b 8c2f 253d 3237 4f3d
00000250: 3ed7 3dbb 0954 0b3d 2ae1 35bd 3cae 603d
00000260: e777 7b3d 7c64 c93c 8712 babc bfe9 3d3d
00000270: 6999 be3b e4c7 3a3d cb5b d1bc 49b0 563c
00000280: 76e7 6bbd a76c 1b3d 9106 093d f246 0abd
00000290: c596 07bd 4267 0bbd 0f31 093b bc37 b6bc
000002a0: 47fa 62bd 9912 093c 5c81 6cbb 482b c8bb
000002b0: d8a2 2ebd 96e3 6a3b c34d 2c3c 8d3b bdbb
000002c0: dee7 bbbd ef30 65bc 7226 59bd 1026 01be
000002d0: 6301 d9bc bbe4 513c 61db faba 7814 73bc
000002e0: 3101 6cbd 7bb0 1cbd c6b1 d73c 3e7f a53c
000002f0: 2fe2 a0bd 6d52 643d aa9b b3bc e20b a73c
00000300: 78f5 593c d3b0 8c3d e68b e6bb 09d5 29bd
00000310: 26b8 a3bd a331 babd d138 9dbc 03b1 a3bc
00000320: 9ffd 3ebd 88ac ef3c f2b8 b6bd f7a3 99bc
00000330: 2b0c e5bb 57ba a73c 35c1 07ba 47f3 1a3d
00000340: 76da 8e3d fc3b af3c 8f10 933b 2cc7 abbc
00000350: a019 ab3c 7281 16ba 88d6 153c a914 a53d
00000360: 1038 20bd 3a4d 23ba ff09 313d aaee ad3c
00000370: 2b9d 8a3d 2c6e 973d 6884 91bd fd8d 933d
00000380: 934c 343c 6c1e 63bd 0b5b 753c 551c 54bc
00000390: 8355 dc3c b14b 043d 45df 9bb9 6216 1bbc
000003a0: 7f42 b33d 680e 88bb 20fe 9a3c 999f 103d
000003b0: 9ad1 3cbd 1f11 8abd 3947 1ebd 553a 663b
000003c0: 5e3e ba3b 37b2 29bd 9d0d 103d 7e43 3c3d
000003d0: b8fc e93b 75a6 25bd 78ba 533c f708 483d
000003e0: fe19 0d3c 8c16 6fb9 5251 a4bc e2e1 87bb
000003f0: 6bc4 643b 2cdc 42bd f1d3 363a 1a04 2cbd
-0.07312385 0.045953184 0.046851385 0.06721292 -0.021652956 0.027603596 -0.0019147237 0.10645661
0.07879255 -0.02593464 0.019499438 -0.045022845 0.039543837 -0.009104665 0.090487756 -0.05934537
0.018181132 0.030990085 0.0072766566 -0.028391737 0.045971528 -0.010419739 -0.026770575 -0.06388526
0.019545307 -0.0221413 0.022844182 0.009611034 -0.009687036 0.07018037 0.0322793 0.021923644
-0.009730431 -0.052907277 -0.01757277 -0.07960861 -0.022609407 -0.016076757 -0.031860873 0.055353604
0.031573728 0.03793912 -0.022584587 -0.03940045 0.033410504 -0.0016567382 0.011053099 0.016036939
0.008960041 0.028365633 -0.041247927 -0.014931505 0.027685665 -0.023650384 -0.023211194 -0.039441705
0.01605797 0.011958171 -0.03856638 0.0628188 0.017035574 -0.0242408 -0.0007845599 0.02249514
-0.004138459 0.01613113 -0.050896738 0.025916656 -0.022314077 0.018905083 0.01921106 -0.026005281
-0.020607302 0.0044393376 -0.021047426 -0.012912787 -0.05416401 0.02322382 0.042080536 -0.021980934
0.0375943 0.0015742581 0.014376471 -0.021721762 0.0028935312 0.07148593 -0.04598682 0.012440362
0.021046773 -0.06033636 -0.0043134 0.02506144 -0.085957505 0.019389478 -0.035936203 -0.030033922
0.016967896 -0.0617253 -0.001505342 -0.024931507 0.02387636 -0.0062896465 -0.00816204 0.006988398
0.010890261 0.0032990596 -0.03246048 0.011162126 0.020859938 -0.050961014 0.068799645 0.03001326
-0.009119891 -0.019841611 -0.049243517 -0.0016038341 0.040827543 0.0140045555 0.030815234 0.050835703
0.02985025 0.0064399173 -0.026493166 -0.020788863 -0.05986074 -0.09005739 -0.029137908 0.016882136
-0.0045859753 -0.05321951 -0.01644967 0.016287446 0.027886711 -0.011194946 0.008665663 -0.03156312
0.010058317 0.0011758764 -0.023302719 -0.019859973 -0.049764663 0.03329095 -0.03766862 -0.008961021
-0.049466103 0.004298971 0.040328547 0.050589748 -0.0028967406 0.03401569 -0.044404186 0.054853663
0.061393645 0.024584047 -0.022713913 0.046365496 0.0058166278 0.045600787 -0.025556466 0.013103553
-0.057593785 0.037945416 0.033453528 -0.033759065 -0.03310277 -0.03403402 0.0020933782 -0.022243373
-0.055414464 0.00836625 -0.0036087846 -0.006108675 -0.04263577 0.0035841218 0.010516587 -0.0057749213
-0.091750845 -0.013988717 -0.05301518 -0.12612176 -0.026489919 0.012810881 -0.0019138866 -0.014836423
-0.057618324 -0.038254242 0.026329886 0.020202275 -0.07855641 0.05574267 -0.021924812 0.020391408
0.013303153 0.06869664 -0.00703572 -0.04146293 -0.07994108 -0.09091499 -0.019192131 -0.019981867
-0.04662859 0.029257074 -0.08921994 -0.018754942 -0.006989976 0.020474596 -0.00051786314 0.037829664
0.06975262 0.021390907 0.004488058 -0.020968996 0.020886242 -0.0005741335 0.0091453865 0.08060581
-0.039115965 -0.0006229464 0.043222424 0.021231968 0.06768259 0.073940605 -0.071053326 0.072048165
0.011004585 -0.055448934 0.01497532 -0.012946208 0.026896244 0.032298747 -0.00029730253 -0.009465786
0.087529175 -0.004152108 0.018920004 0.035308454 -0.04609833 -0.06741547 -0.038642142 0.0035129983
0.0056837043 -0.041429725 0.035169233 0.045962803 0.007140722 -0.04044195 0.012922876 0.048836675
0.008612154 -0.00022801216 -0.020058308 -0.0041468004 0.0034907113 -0.047573254 0.0006974331 -0.0419961

conv4.bias f4 [128]
00000000: 43aa 24bd d68c e83c 503e 053d 149e f0bc
00000010: 5c6a 7d3c 8372 3f3d 1371 05bd 9dcc 4bbb
00000020: 4c6a 48bd c401 2a3d 48b1 9b3c 337b 4abb
00000030: 27e4 59ba 3015 013d 8a27 00bd da51 6fbc
00000040: 71a7 a1bc 069a ddbc b25f f6bc a688 18bb
00000050: 02dc 85bc f9ff 0d3d e570 0dbd c48c 11bd
00000060: 5035 1abd 3969 923b 7723 5dbd 4073 6abc
00000070: e16a 62bc 8c74 9c3c 3289 84bc 0611 1e3d
00000080: afc9 8b3b da65 3a3d b95b a3bc 4db0 9f3c
00000090: 4d1a a8bc 0cb0 5abb 3f09 2e3b 2bb7 923c
000000a0: 9b9f e1b9 88df 05ba 268f 323d 28cf 113d
000000b0: 128c 453b 293b 7cbc 8c71 b6bc 8232 303d
000000c0: 76db d9bc 1627 1c3d b849 22bd 1038 e5bb
000000d0: f311 67bc 24f9 a53c aecd 94bb b351 87bc
000000e0: e27b 47bc 61c3 6d3d c6ae 013d 669e 31bd
000000f0: 673e 12bd 0c56 fd3c 8fb9 b13c dd7b 863c
00000100: b86e 4e3d c754 3bbd 04bf b8bb 0ac0 babc
00000110: ee51 83bc 4377 d03c bd03 9bbc c44b ed3c
00000120: b9dd d5bb a31d 6cbc 6cd7 f53c 759d 8838
00000130: 95b5 d2bc 72ae 58bd 13f0 953a 846d c03c
00000140: 892f 42bd 40ca 3cbc 5484 cabc c695 e4bc
00000150: 132d 2f3d 58a2 e637 0349 1c3d df21 e93c
00000160: 9590 5bbc b3e6 5ebb b75e 3e3b b94d 55bd
00000170: ee15 8e3b c562 57bc fb59 21bd 8617 ba3c
00000180: 2235 17bd 3834 21bc 8348 1b3d 8059 75bb
00000190: 82d7 a6bc 9f94 74bc c428 9ebc 74b6 b53b
000001a0: 09c0 60bb 1df9 d9bb 7bb0 ecbc 2bc2 d7bc
000001b0: 7d4d a73c c2b8 d33c d903 5f3d 4e97 29bb
000001c0: 5eba 0a3c 19c7 0a3d 9040 033d 1f59 abbc
000001d0: 7028 dabb b2f1 95bc 45ca 0dbd a76a 453b
000001e0: 5756 333d f41b 13bd d0df 1ebd b27e 363b
000001f0: dde2 21bc 3398 c83c 67de 053c b1ca 13bd
-0.040201437 0.028387468 0.03253013 -0.029372253 0.015467253 0.046740066 -0.03257854 -0.00310973
-0.048929498 0.04150559 0.019005433 -0.0030896186 -0.00083118904 0.031514347 -0.031287707 -0.014606917
-0.019733163 -0.027050983 -0.030074928 -0.0023274808 -0.01634026 0.034667943 -0.034531493 -0.035534635
-0.0376485 0.00446811 -0.0539889 -0.014309704 -0.013819427 0.019098543 -0.016178701 0.038590454
0.004265986 0.04550729 -0.019941198 0.019493246 -0.020520354 -0.0033369092 0.0026555804 0.017909607
-0.0004303426 -0.0005106856 0.04359355 0.03559795 0.0030143303 -0.015394964 -0.02227094 0.043016918
-0.026593905 0.038123213 -0.039621085 -0.0069952086 -0.0141034005 0.020260401 -0.0045411205 -0.01651845
-0.012175532 0.058047656 0.031660818 -0.04336395 -0.035704043 0.03092482 0.021694927 0.016416484
0.05039856 -0.045735147 -0.005638005 -0.02279665 -0.016030278 0.025447493 -0.018922681 0.028966792
-0.0065266755 -0.014411363 0.030009948 6.514314e-05 -0.02572135 -0.05290074 0.0011439346 0.023489721
-0.047408614 -0.0115228295 -0.024721302 -0.027903449 0.042767595 2.7493734e-05 0.038155567 0.028458534
-0.01340117 -0.003401202 0.0029048154 -0.052076075 0.0043361103 -0.013146107 -0.039392453 0.022716295
-0.036915906 -0.00983911 0.03791095 -0.003743738 -0.020366434 -0.014928012 -0.019306548 0.0055454317
-0.003429415 -0.006652011 -0.028892746 -0.026337704 0.020422691 0.025844935 0.05444703 -0.0025877538
0.008467285 0.03388128 0.032043993 -0.02091652 -0.0066576526 -0.018303726 -0.034616727 0.0030123384
0.043783512 -0.03591533 -0.038787663 0.0027846512 -0.009880749 0.024486637 0.008170701 -0.036081973

linear.weight f4 [10, 512]
00000000: 19cf 4d3d eae2 8ebd 53d9 44bd e8b7 c2bd
00000010: f570 4b3c 5c1d d4bb 4f29 bcbd e690 babd
00000020: 285b cf3c 65d0 00bd 7a4e c6bd 19cc 113d
00000030: e60f 8bbc a16f 253d 042b 36be 79df be3c
00000040: 0361 d9bc 7b84 7fbd 118c e5bc 77fe 0abd
00000050: eb56 1e3d 49ce 42bc 928f 9fbd 2d52 9d3c
00000060: 3f05 6abd 0ccf 043d d905 8bbc ea64 c93b
00000070: 6889 0c3d 5f9e 2abd 1582 c4bd e359 8e3c
00000080: f07a f93c 23bf ad3c a809 2bbd 3931 6f3d
00000090: c1cd 82bc 5a4d 31bd 5f1c efbd 7b7b a1bd
000000a0: a0ca 153d 46b9 773c 69f9 133d 0c8d 1f3d
000000b0: c9ca 46bd 74e1 cfbb 49ae 1f3d 643a 1bbd
000000c0: 59ca 9dbd f395 a8bc fef0 07be 88fb f1bc
000000d0: 29c3 12bd 0cbe bc3a b1de 463b 0085 8cbd
000000e0: ec30 89bd de4a 83bd 68e7 4e3c 071e 793c
000000f0: dc0f f03b 87cb 8a3d 10e8 c4bd f821 d9bc
00000100: d473 363d 1520 8fbd 1085 67bd 2c7f 733d
00000110: c520 76bd e60d dc3c ebdc c4bb 2e67 03be
00000120: 4f99 f7bc 6a2b b03d b79e adbd 243a 91bd
00000130: abc0 46bc d2a2 b7bc 9111 743d 1081 b43c
00000140: 758a 1f3c f123 77bb cefc 93bc c6bb b9bc
00000150: 373b 93ba 6d54 ebbd 50a1 423d a1d5 8f3c
00000160: 9f59 2f3c 7e6d 00bd 2ed3 04be fae5 f4ba
00000170: 7079 2c3d 9332 ab3c 31a0 a2bc c5ef aebd
00000180: 75e7 62bc 08c3 f7bc 09ef 2cbd cb5d cdbd
00000190: a2c1 fbbb 0e2b f9bd e099 84bb 0ceb ebbd
000001a0: 132a 20bc debe 9dbd 3c10 f83a 2de0 933c
000001b0: c77b e33c 4ddb 8bbc 11a3 15be 9004 98bd
000001c0: 6eb9 8d3c 6e8b c1bd 5629 583c 0f51 4b3c
000001d0: 9614 13bd 22eb 783b 9537 203d 9bd7 f73c
000001e0: 922f 69bd 1fbd ec3b b4c6 31bc 40c2 b5bd
000001f0: d3b3 973d 9a3f 14be 3f9a fb3c a85e e33c
00000200: b92b 51bd 3628 5f3d 7064 253d b871 80bd
00000210: c5b7 f13b 7619 10bd 62cf b9bc 1481 76bc
00000220: d266 1e3c 24ef 41bc 20fc 2dbd 2c09 6bbc
00000230: a310 03bd 95b1 6abc 0cf1 4dbd d849 23bd
00000240: ffbf d8bb ae2d 11be 9717 603d 32c6 8c3d
00000250: 0893 74bd 8bed 9ebd 2da8 58bc 9763 cfbd
00000260: a252 e1bc 2b24 90bc dff2 2d3c b6b2 103c
00000270: ab48 28bd 4c2c 1a3d 1090 4fbe 163e 85bd
00000280: 45f1 0e3d dc78 03bd d2cc 973d ac83 893d
00000290: 9509 bdbb 2987 1fbd 59cf 533d e83e f5bc
000002a0: 9ff9 a3bc e2bb ed3c 82cd e23b d1a0 163d
000002b0: cc5f 60bc efb9 9bbc a934 bbba ed56 2ebb
000002c0: afe2 80bc 5625 7dbc e405 6bbd eeec 64bd
000002d0: a6e9 6a3d fd2a b13c aca4 36bd c05b c6bd
000002e0: a5d6 20bd e23c 153c ab25 563d a5e7 14bc
000002f0: bc0e 45bd 0c96 8cbd 9a09 443d 6a00 0b3d
00000300: bdbf 17bc 73d6 1cbd 3985 47bd b126 90bd
00000310: a335 3dbc af08 33bc d3c2 383d 8936 92bd
00000320: c77a 78bd 8a4a edbc e51c 3e3d 338b f23c
00000330: 3443 0cbd 61a2 2c3c 60f2 cdbc 7a16 42bd
00000340: 9e89 d23c 0d72 0c3d 1e1e f6bc 5b0b 17bc
00000350: 0201 c4bc e1ef 83bc 3015 c3bc 98f2 86bd
00000360: 7c90 683c b6b2 ef3c e6ee c53c 4fa8 513d
00000370: b19d 10bd c51b 6c3d 89da 973c 98ac 00be
00000380: 7dd0 013d e958 df3d cea5 f3bb cf32 adbb
00000390: 90a4 5dbd 1592 e1bc 14af 1b3d ef5d 6e3d
000003a0: 5195 e33c 280f 0d3c 91e2 15bc b292 febb
000003b0: 46d6 2b3d 54dc 8b3c f308 9cbc d605 afbd
000003c0: 5748 3a3d bc41 b23c 4d0e d03c 2762 babd
000003d0: edef 1dbb fde1 fabc 9f3b 49bc 21e7 133c
000003e0: 6f13 9fbc b567 d4bb aa57 05bc 3439 653d
000003f0: 507c b2bc 7cad a0bc b540 84bd 1b53 643d
0.05024633 -0.06976874 -0.04805882 -0.095077336 0.012417068 -0.0064732265 -0.091875665 -0.091096684
0.025312021 -0.03144874 -0.09682937 0.035595033 -0.016975354 0.04038966 -0.17789847 0.02329992
-0.026535517 -0.062382203 -0.02802089 -0.033934083 0.03865711 -0.0118900025 -0.07791056 0.019204224
-0.05713391 0.032424018 -0.016970562 0.006146063 0.03431073 -0.04165494 -0.09595124 0.017376846
0.030454129 0.021209305 -0.041757256 0.05839655 -0.015967252 -0.04328666 -0.11675333 -0.0788488
0.03657019 0.015119856 0.036126528 0.038952872 -0.048533235 -0.006344015 0.03898457 -0.037897483
-0.077046104 -0.020579314 -0.13275525 -0.029538885 -0.03583065 0.00143999 0.0030345137 -0.06861305
-0.06698784 -0.06410764 0.012628414 0.015204913 0.0073261093 0.06777101 -0.09614575 -0.026505455
0.044544056 -0.06988541 -0.056523383 0.059447452 -0.060089845 0.026862096 -0.006007781 -0.12832329
-0.03022447 0.086020306 -0.08477538 -0.070911676 -0.012130897 -0.022416506 0.059587065 0.022034198
0.009737601 -0.0037710632 -0.018064883 -0.022672545 -0.0011232857 -0.11490712 0.04751712 0.01755792
0.01070252 -0.03135442 -0.12971184 -0.0018684261 0.042108 0.02089814 -0.019851776 -0.08541826
-0.013849129 -0.030244365 -0.04222015 -0.10027655 -0.007682995 -0.12166415 -0.0040466636 -0.11519441
-0.009775656 -0.07702421 0.0018925737 0.018051231 0.027768983 -0.017072344 -0.14612986 -0.07422745
0.017300334 -0.09450422 0.013193449 0.012409463 -0.035908304 0.0037981947 0.039115507 0.030254176
-0.056930132 0.0072246934 -0.010850597 -0.08874941 0.074073456 -0.14477387 0.030713199 0.027755097
-0.051067088 0.054481708 0.040378988 -0.0627169 0.0073766434 -0.03518053 -0.022681896 -0.015045423
0.009668069 -0.011836801 -0.042476773 -0.014345448 -0.031998288 -0.014324565 -0.05027871 -0.039865345
-0.0066146846 -0.14177582 0.054709997 0.0687374 -0.059710532 -0.077601515 -0.01322369 -0.10126417
-0.027505223 -0.017595371 0.010616987 0.0088316705 -0.041084927 0.0376399 -0.20269799 -0.065059826
0.03489806 -0.032097682 0.07412113 0.067145675 -0.0057689645 -0.03894726 0.051711414 -0.029937223
-0.02001649 0.029020254 0.006921471 0.03677446 -0.013694715 -0.019009558 -0.0014282662 -0.0026602105
-0.015733091 -0.015450796 -0.057378665 -0.055890016 0.05735173 0.021626944 -0.044590637 -0.09685469
-0.0392672 0.009108754 0.052282017 -0.0090884315 -0.048109755 -0.06864557 0.04786072 0.03393594
-0.009262023 -0.038290452 -0.048711035 -0.0703863 -0.0115484325 -0.010927363 0.045107674 -0.07139308
-0.060663965 -0.028966207 0.046414275 0.029607391 -0.034243777 0.010536761 -0.025139987 -0.047384717
0.025700387 0.034288455 -0.030043658 -0.009219016 -0.023926262 -0.016105594 -0.023813814 -0.0658924
0.014194604 0.02926002 0.024161767 0.051185902 -0.035306636 0.05764367 0.018536823 -0.1256584
0.03169297 0.1090563 -0.007435537 -0.005285598 -0.054112017 -0.027535478 0.038008764 0.05819505
0.02778116 0.008609571 -0.009148256 -0.0077689523 0.041952394 0.017072834 -0.019047236 -0.08546035
0.045479145 0.02175986 0.025397444 -0.09100752 -0.0024099306 -0.030625338 -0.012282281 0.009027273
-0.019418446 -0.0064820894 -0.0081385765 0.055962756 -0.021787792 -0.019613974 -0.064576544 0.055743318

linear.bias f4 [10]
00000000: 1097 b13c 6bc0 143c bce8 5e3b d697 7ebc
00000010: 9be6 9e3c ca3a 153d 3944 263c 313d d53b
00000020: 2436 c9ba cfcd ed3a
0.021678478 0.009079079 0.0034013232 -0.01553913 0.01939707 0.03643302 0.0101481015 0.0065075387
-0.0015351218 0.0018143001
